saved_models/VAE_fmnist/netE_pixel_ngf_16_nz_100_beta_1.0_augment_hflip_epoch_100.pth (torch, 994399 bytes, 19 tensors)

conv1.weight f4 [100, 64, 4, 4]
-0.12978813 0.19492804 -0.04335706 -0.130643 0.110624395 0.15981814 -0.017969878 0.066230424
0.0902758 0.024590807 -0.06464631 0.39410987 0.04875859 0.25162533 0.21761355 0.029091353
-0.12301395 -0.2552816 -0.11457567 0.19745432 -0.10142751 -0.1173447 0.027509592 -0.29880872
-0.04451708 -0.04110045 -0.04205059 0.06424364 -0.22545472 0.069254726 -0.38373712 -0.16812572
0.21984924 0.13680913 0.14150366 0.061336286 -0.2997362 -0.014875053 0.04721214 0.11377744
-0.03533132 0.07914107 -0.05960818 0.16278708 -0.028963976 0.12822619 0.056875557 -0.308398
0.039451048 0.002654772 -0.25028855 0.35574517 0.2406262 -0.2825186 0.40160817 0.08754412
-0.048105866 0.0046244278 0.062170938 -0.26000285 0.14600609 0.030638741 -0.07727642 0.11967052
0.28147614 0.12592925 0.08428581 0.26807642 -0.0031801346 -0.19186239 0.07272223 0.1311406
0.034212094 -0.2102571 0.07877033 -0.163394 0.12932485 0.015867101 0.14361152 -0.092986815
-0.1525345 0.025618162 0.04777189 -0.030396692 -0.05831295 -0.019694015 -0.121773675 -0.027916338
-0.093627214 -0.04314298 0.058879368 -0.027556075 -0.03850674 -0.17291331 0.16455483 -0.122621454
0.12429248 0.26338175 -0.15168108 -0.0510642 0.022519995 0.061858203 0.026891522 0.22043136
-0.074295476 0.026789792 0.1325647 0.023183512 -0.109810434 -0.045794863 0.087229006 0.050361983
0.3695129 0.042873077 0.17778012 0.059593976 0.026910022 -0.020451933 -0.16009647 -0.018249976
0.1446465 -0.3383829 -0.08444221 0.25168467 0.14499786 -0.02776613 -0.114062846 0.10596872
0.067330696 -0.05673793 0.08993271 -0.14693682 -0.19497074 0.032650582 -0.05183417 0.06027457
-0.18463486 0.14482486 -0.114128545 -0.06041073 -0.3261191 0.0021451795 0.08511386 0.024646189
-0.37191603 0.26326782 0.18209207 -0.030885106 -0.26366943 0.13109772 -0.18456763 -0.095450066
0.05565396 0.049558166 0.04883754 0.5223165 -0.3190936 0.07042407 -0.23115021 0.047982756
0.11460652 0.18815804 -0.109795555 -0.011856754 0.2221432 -0.19518948 -0.11973877 0.25393802
-0.035469312 0.13326648 0.078352146 -0.018970674 -0.5691375 -0.11375797 0.054178637 -0.036554925
0.12735611 0.16182876 0.1221093 -0.2352246 -0.054236576 -0.14578375 -0.05162033 -0.08953944
-0.07733016 0.16134498 -0.066846006 0.071035765 -0.05341591 0.07441665 -0.06931768 -0.30586082
0.109597795 0.36501768 -0.28384355 0.14457087 -0.09779189 -0.14038815 -0.17239551 0.15729187
0.26965323 -0.10700728 -0.1266446 0.3103339 -0.14727315 0.10409684 0.1464085 -0.13053258
0.15644082 0.3798678 0.044804968 -0.04843453 -0.07602374 -0.016341204 -0.24618392 0.09546783
-0.11187647 0.24572565 0.01777197 0.27752307 -0.24178123 -0.059708174 0.008516842 -0.18303081
0.14395589 -0.13650437 0.2178366 0.04982115 -0.061607018 -0.32629943 -0.063182995 -0.17411704
-0.010385297 0.009769989 0.018875169 0.16895033 0.034389317 0.40498108 -0.24397968 -0.26597983
0.29116854 -0.003951981 0.04721334 -0.067123316 0.12340061 -0.25918245 -0.03117788 -0.14477332
-0.087478906 0.26169762 0.15057538 0.044410206 -0.05044858 0.0058904975 -0.19654937 0.086719565
00000000: 2ee7 04be 379b 473e 2c97 31bd 47c7 05be
00000010: 0b8f e23d 5ea7 233e 9135 93bc d1a3 873d
00000020: 85e2 b83d a972 c93c 4965 84bd c5c8 c93e
00000030: 16b7 473d 09d5 803e 16d6 5e3e fd50 ee3c
00000040: bdee fbbd 45b4 82be a6a6 eabd 7731 4a3e
00000050: 3ab9 cfbd 6b52 f0bd cc5b e13c 75fd 98be
00000060: 8b57 36bd f258 28bd 3d3d 2cbd 2b92 833d
00000070: 9add 66be 6cd5 8d3d 3179 c4be 2629 2cbe
00000080: 2920 613e b117 0c3e 56e6 103e c23b 7b3d
00000090: 0677 99be 7fb6 73bc 8461 413d 2504 e93d
000000a0: 93b7 10bd b714 a23d b527 74bd a8b1 263e
000000b0: dc45 edbc ba4d 033e 58f6 683d 58e6 9dbe
000000c0: 6c97 213d affb 2d3b d225 80be 3b24 b63e
000000d0: b766 763e 47a6 90be 969f cd3e 554a b33d
000000e0: a80a 45bd 8388 973b f4a6 7e3d 181f 85be
000000f0: 9f82 153e 19fe fa3c 1a43 9ebd d115 f53d
00000100: a41d 903e 99f3 003e 0a9e ac3d 5041 893e
00000110: ce69 50bb 9377 44be 64ef 943d b949 063e
00000120: fb21 0c3d a34d 57be 5752 a13d c250 27be
00000130: bc6d 043e b9fb 813c e60e 133e df6f bebd
00000140: 0132 1cbe 2edd d13c 75ac 433d 7c02 f9bc
00000150: 8fd9 6ebd 5855 a1bc 7a64 f9bd ceb0 e4bc
00000160: a0bf bfbd b2b6 30bd 7e2b 713d 47bd e1bc
00000170: 3eb9 1dbd 3010 31be 1081 283e f520 fbbd
00000180: 0e8d fe3d f9d9 863e 4952 1bbe b228 51bd
00000190: da7b b83c 075f 7d3d 9c4b dc3c c2b8 613e
000001a0: 3a28 98bd 4476 db3c 0abf 073e 59eb bd3c
000001b0: 4be4 e0bd 6593 3bbd 1fa5 b23d 5e48 4e3d
000001c0: cb30 bd3e ae9b 2f3d fe0b 363e d018 743d
000001d0: 6872 dc3c d08a a7bc 54f0 23be f980 95bc
000001e0: 361e 143e 8640 adbe 0af0 acbd d0dc 803e
000001f0: 527a 143e cc75 e3bc c899 e9bd 2106 d93d
00000200: ade4 893d 0866 68bd a42e b83d 9b76 16be
00000210: 69a6 47be 9ebc 053d 1150 54bd 78e2 763d
00000220: ec10 3dbe f84c 143e 3abc e9bd 3e71 77bd
00000230: 15f9 a6be 2496 0c3b 2d50 ae3d cee6 c93c
00000240: c76b bebe 0acb 863e 5876 3a3e c302 fdbc
00000250: aeff 86be 7b3e 063e 4cff 3cbe 537b c3bd
00000260: 68f5 633d 81fd 4a3d df09 483d 89b6 053f
00000270: 3d60 a3be 7f3a 903d a4b2 6cbe 9189 443d
00000280: d3b6 ea3d 80ac 403e 7edc e0bd d542 42bc
00000290: 8279 633e c0df 47be 9a39 f5bd 2a04 823e
000002a0: 4548 11bd 0277 083e 1777 a03d 6368 9bbc
000002b0: ffb2 11bf f0f9 e8bd 6bea 5d3d 9eba 15bd
000002c0: a469 023e 70b6 253e 7114 fa3d b8de 70be
000002d0: 2c27 5ebd 5648 15be d76f 53bd 7460 b7bd
000002e0: 465f 9ebd 9e37 253e 8fe6 88bd 337b 913d
000002f0: a4ca 5abd c267 983d 6ef6 8dbd ca99 9cbe
00000300: cf74 e03d 99e3 ba3e f153 91be 630a 143e
00000310: 1d47 c8bd e9c1 0fbe 7388 30be 1f11 213e
00000320: fd0f 8a3e a226 dbbd 1faf 01be 16e4 9e3e
00000330: c6ce 16be b930 d53d 1cec 153e 55aa 05be
00000340: 0632 203e 087e c23e 6a85 373d 4963 46bd
00000350: 56b2 9bbd fddd 85bc a317 7cbe a384 c33d
00000360: 7e1f e5bd 819f 7b3e 8696 913c 8117 8e3e
00000370: 8095 77be 8f90 74bd 398a 0b3c 6e6c 3bbe
00000380: 2c69 133e cdc7 0bbe 8f10 5f3e 4311 4c3d
00000390: a457 7cbd b810 a7be 1666 81bd bd4b 32be
000003a0: 1827 2abc 4e12 203c 19a0 9a3c 5101 2d3e
000003b0: d0db 0c3d ae59 cf3e cfd5 79be 822e 88be
000003c0: 0b14 953e 9f7f 81bb c662 413d f377 89bd
000003d0: 76b9 fc3d 90b3 84be c168 ffbc 753f 14be
000003e0: 2428 b3bd 3bfd 853e 6f30 1a3e 7ae7 353d
000003f0: 2ca3 4ebd 1305 c13b 3d44 49be 079a b13d

conv1.bias f4 [100]
-0.036677975 0.039527684 -0.039843358 -0.006283862 -0.00237658 0.19126609 0.039077587 0.011695888
-0.025266858 0.03373569 -0.0759022 0.021269869 0.054912698 -0.030785862 0.04786072 -0.010914006
-0.0004956157 0.06548186 0.011936211 -0.0026323793 -0.009727062 -0.04501414 -0.03692166 -0.025975022
-0.0067483624 0.15609007 0.007924602 -0.043908264 0.0069587263 0.08071452 -0.19045135 0.05099913
-0.016237067 0.04174601 -0.043405466 0.026252192 0.015713409 0.15734063 -0.0053107133 0.05921994
-0.08810234 -0.014948959 -0.20883633 -0.07395339 0.023292916 0.022697156 0.068149194 0.026268981
0.007863727 0.04586598 0.029765619 -0.0024341906 0.05545317 0.041981637 0.025032002 -0.0070033623
-0.03316929 0.0058609177 -0.006446966 0.05587034 0.0111780735 -0.058436207 -0.054173354 0.10484087
-0.02470609 0.032643095 0.10074093 0.0010000743 0.013948167 -0.018945843 0.035489514 -0.014751859
0.04302341 0.024359778 0.043710403 0.098542996 0.009371165 0.04764402 0.02685296 -0.010586927
0.004320664 -0.028347615 -0.09887655 0.023183124 -0.033301305 0.027375491 0.06476238 0.012722528
0.08107961 0.036544476 0.08210967 0.06488913 -0.085826404 -0.00023691301 0.049444485 -0.025293423
-0.05159879 0.04969587 0.06819243 0.07650561
00000000: a53b 16bd c8e7 213d ca32 23bd dbe8 cdbb
00000010: 65c0 1bbb 42db 433e d20f 203d 1ca0 3f3c
00000020: 71fc cebc 6f2e 0a3d 9d72 9bbd 263e ae3c
00000030: 23ec 603d a232 fcbc 9a09 443d a9d0 32bc
00000040: 35ec 01ba 5a1b 863d 1990 433c ff83 2cbb
00000050: 415e 1fbc bf60 38bd 2b3b 17bd 92c9 d4bc
00000060: 5e21 ddbb 13d6 1f3e 31d6 013c 27d9 33bd
00000070: 0706 e43b a74d a53d ae05 43be 77e4 503d
00000080: 9903 85bc ddfd 2a3d eec9 31bd d60e d73c
00000090: 68b9 803c e71d 213e 7e05 aebb 9c90 723d
000000a0: 006f b4bd 7bec 74bc 31d9 55be e074 97bd
000000b0: c9d0 be3c 63ef b93c ce91 8b3d 0c32 d73c
000000c0: ddd6 003c f7dd 3b3d 07d7 f33c f186 1fbb
000000d0: dd22 633d f0f4 2b3d ea0f cd3c 767c e5bb
000000e0: 85dc 07bd f10c c03b 1241 d3bb 4cd8 643d
000000f0: 3d24 373c ce5a 6fbd e1e4 5dbd cfb6 d63d
00000100: 6d64 cabc c4b4 053d 4351 ce3d ed14 833a
00000110: da86 643c 5034 9bbc 745d 113d c8b1 71bc
00000120: 5139 303d 288e c73c ae09 333d e9d0 c93d
00000130: 8489 193c 6026 433d bdfa db3c ca74 2dbc
00000140: 5b94 8d3b 4239 e8bc ca7f cabd 89ea bd3c
00000150: f366 08bd 9142 e03c 24a2 843d 2672 503c
00000160: 110d a63d a9af 153d 1d29 a83d 98e4 843d
00000170: c1c5 afbd da6b 78b9 4d86 4a3d 2734 cfbc
00000180: 4159 53bd e68d 4b3d 79a8 8b3d f9ae 9c3d

conv2.weight f4 [100, 64, 4, 4]
-0.009156138 -0.011588411 0.012178516 0.005500658 0.010267399 0.035984855 0.005037987 0.04322041
0.03846518 -0.006348106 0.014885094 0.029175092 0.0160614 0.07128522 0.010478889 -0.030699514
-0.013910371 0.023962392 -0.0129710175 -0.008731857 0.0100140665 0.023436826 0.016344352 0.023127105
0.0024805244 0.0014237959 0.013122794 -0.01098509 -0.023642294 0.01881928 -0.000638335 -0.017104086
-0.009703577 0.045905627 0.009825992 0.037224963 0.019549893 0.008942308 -0.0045720097 -0.017681714
0.008636819 -0.025552865 0.0034600087 0.009826747 -0.006035096 0.013614377 -0.03464506 0.0064098774
-0.012334222 -0.017292483 -0.010991248 -0.0044058375 -0.0033648503 -0.042673748 -0.01854725 -0.014626899
0.008320665 0.004538927 -0.016182898 -0.053153794 -0.011821788 0.006877158 -0.03750492 -0.002471885
0.02195573 -0.015605643 0.007133988 -0.023560278 0.02304795 0.0348058 0.0049622124 0.014110759
-0.022602048 0.0057065934 0.012506777 -0.029133067 -0.0067064967 -0.03727112 -0.0006191388 -0.0029742843
-0.034067642 0.008818445 -0.0042789383 -0.031567696 -0.008942903 0.010905001 -0.011176146 -0.020737119
-0.0033748017 -0.016029518 -0.010319015 6.9562695e-05 -0.0088427765 -0.0016138088 -0.009751305 -0.005875806
-0.042170223 -0.01368166 0.0009866356 -0.016538505 0.0025748475 -0.011417353 0.0023556931 0.0054524723
0.0077577983 -0.03728169 0.048970286 0.00060555886 -0.015723139 0.01532989 0.010999258 -0.0025398433
0.016593412 0.0021515386 -0.016590081 -0.0025554167 -0.005761292 -0.0067169103 0.042889804 7.921103e-05
-0.014700965 0.017493308 0.0020962176 -0.018221958 -0.00034596532 -0.0013268373 -0.006060553 0.021297814
0.03393747 -0.016892543 0.0052413894 -0.006176573 -0.025823547 0.012149765 -0.0103147235 0.006006062
0.03466426 -0.0095648235 -0.010088911 -0.0021821996 0.017781937 -0.0019077854 -0.016155103 0.0035151665
0.054525457 -0.015041985 -0.008372251 -0.060560003 -0.0080778785 -0.010809964 -0.021758065 0.0073074154
-0.002359419 -0.0012429231 -0.0064111017 0.016798215 -0.013431007 0.0059613767 -0.012302022 -0.0009146191
0.010522026 -0.0024855311 -0.047984485 -0.0074672657 -0.004733197 -0.015446089 -0.021919165 0.01642562
-0.00322002 -0.022089671 0.0022475417 -0.011326175 0.021041933 0.020410841 0.03328821 0.0076649957
-0.02692064 -0.04227784 -0.02968294 -0.0041237082 0.003750841 -0.012052568 -0.0051453086 0.02203472
-0.026104107 0.013650905 -0.020343533 -0.011856059 -0.0015291225 0.010681306 -0.008641508 -0.016983021
-0.012690962 -0.005857912 -0.0044126697 0.011085318 -0.014287884 -0.025798075 0.014446104 -0.0046085673
-0.018180571 -0.013141581 0.026787568 -0.00261144 -0.013521731 -0.018325191 0.022732392 -0.009646203
-0.012589304 0.0011137691 -0.0037804914 0.0054108785 0.008893863 0.0025273967 -0.009132023 -0.00695468
0.023469027 0.0070019425 -0.011734743 -0.008883611 0.035999175 -0.0032058104 -0.015392569 -0.0049079536
0.011797083 0.010926876 -0.046709128 -0.012103948 -0.0013129918 0.010394544 -0.058189865 -0.0002122796
0.06897597 -0.0038381799 0.00064499455 0.0024792901 -0.0037132795 -0.03740779 -0.015805246 -0.010010769
0.022923645 0.023471884 -0.002748171 -0.048088282 0.0038549793 -0.00039108394 -0.009325194 -0.013680461
0.00956508 0.0013272971 0.011085901 0.017967213 0.018118141 0.007684259 -0.0052743237 -0.034302633
00000000: a003 16bc 52dd 3dbc 6688 473c dd3e b43b
00000010: 9838 283c db64 133d b315 a53b e207 313d
00000020: aa8d 1d3d c603 d0bb 9ce0 733c 9a00 ef3c
00000030: 3293 833c fcfd 913d a5af 2b3c 8c7d fbbc
00000040: 53e8 63bc c74c c43c 6484 54bc 1010 0fbc
00000050: 0a12 243c 96fe bf3c 97e4 853c 0e75 bd3c
00000060: 4b90 223b aa9e ba3a fd00 573c cffa 33bc
00000070: 7cad c1bc e42a 9a3c f055 27ba de1d 8cbc
00000080: c0fb 1ebc 8a07 3c3d 33fd 203c 3479 183d
00000090: 1927 a03c c282 123c ccd0 95bb 3ed9 90bc
000000a0: 7281 0d3c 3e54 d1bc 50c1 623b 5d00 213c
000000b0: 0ec2 c5bb d60e 5f3c fae7 0dbd f309 d23b
000000c0: 7a15 4abc f7a8 8dbc a314 34bc d85e 90bb
000000d0: d284 5cbb abca 2ebd 67f0 97bc a9a5 6fbc
000000e0: 6653 083c 48bb 943b ff91 84bc cbb7 59bd
000000f0: 2cb0 41bc c859 e13b c29e 19bd 59ff 21bb
00000100: 81dc b33c d0ae 7fbc 3bc4 e93b 7c01 c1bc
00000110: 0ecf bc3c 8790 0e3d 0e9a a23b d030 673c
00000120: ee27 b9bc 60fe ba3b 3ae9 4c3c 78a8 eebc
00000130: 2cc2 dbbb 9aa9 18bd b44d 22ba 36ec 42bb
00000140: 838a 0bbd 3d7b 103c 5636 8cbb 214d 01bd
00000150: 4185 12bc e4aa 323c 271c 37bc e4e0 a9bc
00000160: c72b 5dbb 5650 83bc 1611 29bc 30e2 9138
00000170: 4be1 10bc 7086 d3ba f0c3 1fbc d589 c0bb
00000180: afba 2cbd 0b29 60bc ff51 813a c27b 87bc
00000190: c6be 283b d90f 3bbc f961 1a3b a7aa b23b
000001a0: 2135 fe3b afb4 18bd 1195 483d 5ebe 1e3a
000001b0: d0cd 80bc 382a 7b3c 3b36 343c 8073 26bb
000001c0: e8ee 873c d400 0d3b ece7 87bc c778 27bb
000001d0: 38c9 bcbb 8719 dcbb 38ad 2f3d 191e a638
000001e0: 51dc 70bc 204e 8f3c b260 093b 3746 95bc
000001f0: ae62 b5b9 46e9 adba 9a97 c6bb c178 ae3c
00000200: 0402 0b3d 3b62 8abc f6bf ab3b da64 cabb
00000210: e78b d3bc cf0f 473c 16ff 28bc 80ce c43b
00000220: 1cfc 0d3d c7b5 1cbc f64b 25bc 3c03 0fbb
00000230: 6dab 913c a80e faba b557 84bc b55e 663b
00000240: 1656 5f3d a872 76bc c42b 09bc c40d 78bd
00000250: 1459 04bc 461c 31bc f83d b2bc 0b73 ef3b
00000260: 7ba0 1abb 94e9 a2ba 3814 d2bb 699c 893c
00000270: ba0d 5cbc a757 c33b 6c8e 49bc 0cc3 6fba
00000280: 9364 2c3c 4be4 22bb 618b 44bd f7af f4bb
00000290: ef18 9bbb 9811 7dbc d28f b3bc 068f 863c
000002a0: f906 53bb 66f5 b4bc 7e4b 133b 6c91 39bc
000002b0: 2260 ac3c a334 a73c 3859 083d a52a fb3b
000002c0: ad88 dcbc 872b 2dbd a329 f3bc 2c20 87bb
000002d0: abd0 753b 2278 45bc fa99 a8bb 2882 b43c
000002e0: 48d8 d5bc 0ca8 5f3c 7ba7 a6bc ea3f 42bc
000002f0: d66c c8ba a500 2f3c 1d95 0dbc fa1f 8bbc
00000300: c1ed 4fbc baf3 bfbb 2898 90bb 329f 353c
00000310: bb17 6abc 7c56 d3bc 5aaf 6c3c 7703 97bb
00000320: 6cef 94bc c94f 57bc 9a71 db3c b124 2bbb
00000330: 408a 5dbc b61e 96bc 4839 ba3c 1c0b 1ebc
00000340: 5e43 4ebc e4fb 913a 1fc2 77bb bd4d b13b
00000350: 91b7 113c aea2 253b 7b9e 15bc 16e4 e3bb
00000360: 1e42 c03c 8d70 e53b 1443 40bc 918c 11bc
00000370: df73 133d 9318 52bb 1d31 7cbc e6d2 a0bb
00000380: 8d48 413c a406 333c 1252 3fbd a34f 46bc
00000390: b218 acba e14d 2a3c 7f58 6ebd 5f97 5eb9
000003a0: 4643 8d3d f989 7bbb da14 293a 967b 223b
000003b0: 7e5a 73bb e938 19bd 017a 81bc 3504 24bc
000003c0: 5eca bb3c 1c48 c03c a91a 34bb 38f8 44bd
000003d0: d2a3 7c3b 660a cdb9 b3c8 18bc 0324 60bc
000003e0: dab6 1c3c b3f8 ad3a a4a1 353c fa2f 933c
000003f0: 7f6c 943c 3dcc fb3b 3cd4 acbb eb80 0cbd

conv2.bias f4 [100]
-0.038375065 -0.35050026 -0.2716587 -0.15320037 -0.14045012 -0.4647158 -0.21399587 -0.0716889
-0.24108058 -0.35310763 -0.2971346 -0.033835646 -0.2330111 -0.36904758 -0.09757578 -0.1609311
-0.031544115 -0.16187541 -0.36207703 -0.10700176 -0.39161777 -0.47516027 -0.030134294 -0.42745236
-0.27982214 -0.19827378 -0.079788044 -0.2404043 -0.25499532 -0.27510127 -0.43303937 -0.14125603
-0.44922465 -0.12276395 -0.33970484 -0.22986138 -0.14123024 -0.49486282 -0.24241836 -0.24474448
-0.29555392 -0.20630185 -0.38402888 -0.30149558 -0.5037839 -0.15935412 -0.2714921 -0.103201695
-0.31743342 -0.34791762 -0.1953683 -0.389617 -0.10674945 -0.13306548 -0.19612369 -0.124830045
-0.04788675 -0.2244856 -0.062314074 -0.32660928 -0.29327336 -0.110608146 -0.06496543 -0.097815774
-0.12566228 -0.17730187 -0.21872665 -0.2638473 -0.12087241 -0.34058052 -0.14886492 -0.09667212
-0.21748814 -0.18025246 -0.20326217 -0.17658347 -0.10123854 -0.449325 -0.3860084 -0.024143908
-0.17798762 -0.32611218 -0.1904363 -0.21383198 -0.13254763 -0.47124255 -0.31810117 -0.08356682
-0.15818374 -0.14237274 -0.33425206 -0.062500015 -0.11386017 -0.14098175 -0.112240836 -0.071446136
-0.024178524 -0.0842299 -0.29204613 -0.27542534
00000000: 2c2f 1dbd c574 b3be d916 8bbe 8fe0 1cbe
00000010: 28d2 0fbe 3bef edbe bc21 5bbe a1d1 92bd
00000020: d4dd 76be 86ca b4be 0722 98be 3f97 0abd
00000030: 769a 6ebe cef3 bcbe cfd5 c7bd 1fcb 24be
00000040: 6734 01bd abc2 25be 2962 b9be bd23 dbbd
00000050: 2082 c8be 3548 f3be 32dc f6bc 09db dabe
00000060: d944 8fbe 4808 4bbe ea67 a3bd 8b2c 76be
00000070: bf8e 82be 13da 8cbe 56b7 ddbe 6ca5 10be
00000080: c600 e6be aa6b fbbd cbed adbe c860 6bbe
00000090: a99e 10be a95e fdbe 853c 78be 4c9e 7abe
000000a0: d852 97be cb40 53be 6f9f c4be a15d 9abe
000000b0: fbf7 00bf ba2d 23be 0301 8bbe 695b d3bd
000000c0: a286 a2be 4222 b2be a10e 48be e17b c7be
000000d0: 759f dabd 5142 08be a6d4 48be e5a6 ffbd
000000e0: e624 44bd 8edf 65be 0b3d 7fbd 5539 a7be
000000f0: ed27 96be 8686 e2bd 980c 85bd a353 c8bd
00000100: 9dad 00be 9f8e 35be e1f9 5fbe fe16 87be
00000110: f48b f7bd 9260 aebe 0c70 18be 08fc c5bd
00000120: 36b5 5ebe 1a94 38be f523 50be 4cd2 34be
00000130: 2756 cfbd ed0d e6be e5a2 c5be 72c9 c5bc
00000140: 6342 36be 2df8 a6be bc01 43be c5f6 5abe
00000150: 91ba 07be b446 f1be 28de a2be 1525 abbd
00000160: ebfa 21be 29ca 11be 1623 abbe 0200 80bd
00000170: 852f e9bd 855d 10be 86de e5bd 5a52 92bd
00000180: 0a12 c6bc ba80 acbd 1287 95be 8d04 8dbe

main.input-conv.weight f4 [16, 1, 4, 4]
-0.86069226 -0.755523 -0.030114362 0.056890916 -0.21165407 -0.26255244 -0.050476544 0.01684681
-0.08822308 -0.053779095 -0.033093795 0.06578514 -0.10309661 -0.055675805 0.029041499 0.09814615
-0.09389054 0.026059255 -0.09754545 -0.043127965 -0.071712576 0.1888648 -0.10399179 -0.06744444
-0.04550052 0.39989766 0.05089939 -0.026047682 -0.02279566 0.7657217 0.4502672 0.11554032
0.09741999 0.114561416 0.18936644 0.09370131 0.07119523 -0.1589033 -0.09713723 0.19209641
0.05942558 -0.01457555 0.16497394 0.3973286 0.016727563 0.3130918 0.27291146 0.023734668
-0.11651865 0.14126313 0.013728242 0.014172047 0.13775723 0.4391859 -0.01700096 -0.03691569
-0.009559348 0.009062481 -0.39548805 -0.15971628 -0.008194067 0.042377528 -0.20806834 0.15792178
0.088800885 0.020422146 -0.17422503 0.084306575 -0.081128426 -0.31993324 -0.5906351 -0.079378635
-0.08372783 -0.12905274 -0.40009823 -0.17814082 0.044537712 0.14018178 -0.13664162 -0.029764995
-0.006438224 0.096511744 0.24931835 -0.03348665 0.05312087 -0.15897225 0.17345174 0.12192587
0.14552301 -0.34236526 -0.024755104 0.21196906 0.018779598 -0.40125117 -0.11093798 0.007791083
0.118169576 -0.016849967 -0.097124875 0.093967184 -0.00947374 -0.332125 -0.16784762 0.024374712
-0.09010533 -0.39556947 -0.4029988 -0.018673128 -0.03031878 -0.36382827 -0.24977757 0.09819984
-0.38661683 -0.29583502 0.029871872 0.012736588 -0.16015226 -0.023114458 0.16709079 0.009281921
0.16032217 0.23144706 0.14221983 -0.0067509497 0.028015478 -0.0013594881 0.029115487 0.0029783968
0.039778166 -0.20756334 0.0044633597 -0.037148494 -0.16115138 -0.8572095 -0.09458092 -0.10795515
-0.05334219 -0.14869276 -0.012279248 -0.01807648 0.013528028 -0.048236955 0.06721543 0.043660674
-0.025647998 0.039115313 0.04046872 0.030796165 0.06923427 -0.12999654 -0.18626167 0.011186345
-0.07743215 -0.19940814 -0.3608581 -0.098187596 0.24476889 0.33740002 0.15470336 0.14103651
-0.13188757 -0.05036445 -0.023135606 -0.102158196 0.05429871 0.40392944 0.5287633 0.103146486
-0.053996075 0.2178641 0.37229237 0.0025185796 -0.06438367 0.016595831 0.04670597 -0.15811847
0.02742059 -0.12873705 -0.008912319 -0.07517212 -0.02490422 0.025860202 0.46458724 -0.07479348
-0.04540573 0.064449534 0.67569923 0.09407772 0.034553565 -0.11563547 -0.056144018 -0.14612319
-0.064859144 -0.055296946 0.07832014 0.21623209 -0.045898847 -0.10617779 0.05594135 0.251487
-0.18619344 -0.19841063 0.13557407 0.34592518 -0.15598789 -0.20191076 0.027565466 0.16983885
-0.058420062 -0.10209484 0.12415657 0.1953386 -0.24493228 -0.19432952 0.019669356 0.19992824
0.07109539 0.16827686 -0.11521352 -0.0067078955 0.14943677 0.3160109 -0.23331353 -0.28922796
0.13857152 -0.08504575 0.03572931 0.017010082 -0.034610085 -0.09627288 -0.12259163 -0.3104532
0.026516467 0.25218886 0.4724944 -0.18528299 -0.13661273 -0.021630723 0.20513627 -0.1530977
-0.053934216 0.008907957 -0.02844519 -0.12045388 -0.01586373 0.0021322465 -0.12557264 -0.082348265
0.50320625 0.5837355 0.2308212 0.09398938 0.14279163 0.22000258 -0.0084375935 -0.03973433
00000000: 5456 5cbf f569 41bf 65b2 f6bc 7306 693d
00000010: d8bb 58be 466d 86be 7ec0 4ebd 5202 8a3c
00000020: 4dae b4bd 7847 5cbd 5c8d 07bd 5cba 863d
00000030: 5124 d3bd 500c 64bd 70e8 ed3c d900 c93d
00000040: af49 c0bd 387a d53c e9c5 c7bd f3a6 30bd
00000050: 0bde 92bd c665 413e a6f9 d4bd 5020 8abd
00000060: c15e 3abd 63bf cc3e e17b 503d f361 d5bc
00000070: f7bd babc 5606 443f 6c89 e63e 67a0 ec3d
00000080: 2284 c73d 2d9f ea3d 47e9 413e 79e6 bf3d
00000090: cece 913d 8cb7 22be e2ef c6bd ecb4 443e
000000a0: 3d68 733d 4ace 6ebc eeee 283e a76e cb3e
000000b0: 3e08 893c 924d a03e 0dbb 8b3e 356f c23c
000000c0: 54a1 eebd 48a7 103e 6cec 603c e031 683c
000000d0: 3b10 0d3e f9dc e03e 9945 8bbc e834 17bd
000000e0: d09e 1cbc cd7a 143c 697d cabe aa8c 23be
000000f0: 6840 06bc 0f94 2d3d de0f 55be 3fb6 213e
00000100: 3ddd b53d 584c a73c 0c68 32be eda8 ac3d
00000110: a926 a6bd 4ace a3be dd33 17bf 4491 a2bd
00000120: 7f79 abbd 6726 04be add9 ccbe 8c6a 36be
00000130: 2d6d 363d d08b 0f3e c8eb 0bbe b8d5 f3bc
00000140: bdf7 d2bb f3a7 c53d 4f4d 7f3e 4c29 09bd
00000150: 4595 593d 9fc9 22be 559d 313e 45b4 f93d
00000160: fc03 153e 804a afbe 37cb cabc 6b0e 593e
00000170: acd7 993c cb70 cdbe 7433 e3bd 574c ff3b
00000180: e402 f23d f108 8abc 68e9 c6bd de71 c03d
00000190: bf37 1bbc 4a0c aabe 3fe0 2bbe 7aad c73c
000001a0: 2589 b8bd 1588 cabe dc55 cebe 63f8 98bc
000001b0: 175f f8bc b347 babe b1c5 7fbe ff1c c93d
000001c0: a4f2 c5be b077 97be dbb5 f43c 1fad 503c
000001d0: f4fe 23be 885a bdbc d919 2b3e 3313 183c
000001e0: 7f2b 243e 7500 6d3e 13a2 113e 1237 ddbb
000001f0: b780 e53c da30 b2ba 9a83 ee3c 3531 433b
00000200: 6eee 223d 7c8b 54be 6041 923b 0529 18bd
00000210: de04 25be 1572 5bbf a4b3 c1bd 9717 ddbd
00000220: 577d 5abd ea42 18be e62e 49bc 2015 94bc
00000230: a9a4 5d3c 1d94 45bd 3ea8 893d 89d5 323d
00000240: c01b d2bc 6137 203d 87c2 253d 3d48 fc3c
00000250: b2ca 8d3d d01d 05be 61bb 3ebe ee46 373c
00000260: bf94 9ebd a631 4cbe 65c2 b8be 9416 c9bd
00000270: b2a4 7a3e b2bf ac3e 8f6a 1e3e e06b 103e
00000280: 890d 07be f44a 4ebd e286 bdbc 5138 d1bd
00000290: 5368 5e3d d7cf ce3e 085d 073f 773e d33d
000002a0: fd2a 5dbd c417 5f3e 1b9d be3e c10e 253b
000002b0: 96db 83bd fbf3 873c c24e 3f3d cfe9 21be
000002c0: 25a1 e03c a5d3 03be fa04 12bc d7f3 99bd
000002d0: ef03 ccbc c6d8 d33c 61de ed3e 532d 99bd
000002e0: 5cfb 39bd 1efe 833d a0fa 2c3f d2ab c03d
000002f0: 0a88 0d3d 4ad2 ecbd 45f7 65bd 51a1 15be
00000300: dfd4 84bd 0d7f 62bd 4f66 a03d f26b 5d3e
00000310: 6e00 3cbd be73 d9bd c222 653d e7c2 803e
00000320: 7ea9 3ebe 282c 4bbe eed3 0a3e 1b1d b13e
00000330: 4abb 1fbe b2c1 4ebe f9d0 e13c 3cea 2d3e
00000340: e049 6fbd 1917 d1bd cd45 fe3d d806 483e
00000350: 87cf 7abe 51fe 46be a121 a13c fdb9 4c3e
00000360: 769a 913d c550 2c3e 11f5 ebbd e8cd dbbb
00000370: f405 193e 2ecc a13e bee9 6ebe b015 94be
00000380: b1e5 0d3e 772c aebd e658 123d ba58 8b3c
00000390: 4ec3 0dbd b72a c5bd 5211 fbbd b9f3 9ebe
000003a0: 1039 d93c e61e 813e c9ea f13e d3ba 3dbe
000003b0: 35e4 0bbe ea32 b1bc 3e0f 523e a5c5 1cbe
000003c0: 20ea 5cbd aef2 113c e305 e9bc 86b0 f6bd
000003d0: a7f4 81bc 29bd 0b3b 1d96 00be 35a6 a8bd
000003e0: 20d2 003f b16f 153f 655c 6c3e 817d c03d
000003f0: f837 123e 5b48 613e d53d 0abc 77c0 22bd

main.input-BN.weight f4 [16]
1.1928062 0.7849497 0.8754251 0.62425077 1.1989313 0.5908052 1.1487153 0.72781676
1.1704177 0.57001454 0.84478784 0.70862895 0.66695076 0.47535697 0.48565403 0.76131445
00000000: e0ad 983f 77f2 483f dc1b 603f e6ce 1f3f
00000010: 9576 993f 023f 173f 1a09 933f 3352 3a3f
00000020: 3fd0 953f 79ec 113f 0444 583f b568 353f
00000030: 49bd 2a3f fd61 f33e a5a7 f83e 81e5 423f

main.input-BN.bias f4 [16]
-0.38733882 -0.9084064 -0.70419896 0.0043741413 -0.3936542 0.00054499967 -0.15356372 0.18065335
-0.6372755 -0.026139464 0.30723482 -0.9698946 0.16948374 -0.0032712913 0.004977502 0.2361374
00000000: 4651 c6be 528d 68bf 6246 34bf f554 8f3b
00000010: 0b8d c9be 4fde 0e3a cf3f 1dbe 31fd 383e
00000020: 7d24 23bf 6e22 d6bc e24d 9d3e 034b 78bf
00000030: 258d 2d3e 2963 56bb 501a a33b 01ce 713e

main.input-BN.running_mean f4 [16]
-0.61553043 0.39440182 0.47946256 0.0007109279 -0.509633 0.0004237768 -0.5125775 -0.012904579
-0.43926972 -0.0069590113 0.32688662 0.20101197 0.07288236 -0.00028462076 0.0012836356 0.36533123
00000000: 6793 1dbf 09ef c93e 1e7c f53e 905d 3a3a
00000010: 4f77 02bf 5c2e de39 4738 03bf ba6d 53bc
00000020: f6e7 e0be 6b08 e4bb af5d a73e 15d6 4d3e
00000030: 5943 953d 2739 95b9 aa3f a83a b20c bb3e

main.input-BN.running_var f4 [16]
0.54486984 0.24114427 0.27791336 0.012032412 0.34726486 0.019005504 0.3589168 0.01820075
0.26226127 0.012156728 0.15983352 0.06709935 0.06038322 0.0060592024 0.009602796 0.20187868
00000000: 977c 0b3f 86ee 763e a94a 8e3e 9823 453c
00000010: b3cc b13e 6eb1 9b3c f1c3 b73e bd19 953c
00000020: 1c47 863e 032d 473c 66ab 233e 626b 893d
00000030: 6554 773d 468c c63b 0c55 1d3c 49b9 4e3e

main.pyramid:16-32:conv.weight f4 [32, 16, 4, 4]
-0.06980086 0.26900417 0.14242712 -0.050724715 0.13020763 0.059556365 0.10768953 -0.029115012
-0.04098433 -0.10160711 0.09342526 -0.101603545 -0.2133253 -0.12950842 -0.06331837 -0.15438177
0.11254774 0.6145364 0.5403839 -0.15703006 0.16982351 0.77719456 0.68965644 -0.053555157
-0.13130932 0.112307414 -0.026909886 -0.22214161 -0.085261814 -0.071386635 -0.25087237 -0.28546387
0.23064551 0.55012345 0.26319742 -0.10987763 0.27423507 0.54074496 0.2656287 -0.12338939
0.007332647 0.17278546 0.044132188 -0.21244816 -0.016609827 -0.031214774 -0.10065553 -0.23636624
-0.17529607 0.20679256 -0.13872094 -0.12711337 -0.044177465 0.6356663 0.079785876 -0.06182369
-0.16590449 0.13250272 -0.018214246 -0.16631533 -0.09235961 -0.046590563 -0.09957125 -0.11753062
-0.0037868954 0.1575251 -0.20450753 -0.042420324 0.27341387 0.26629215 0.034618933 0.13964972
-0.009861065 0.048413105 -0.09633918 0.00056716154 -0.06689023 0.017892977 -0.08654406 0.07188672
-0.13299523 0.13334338 -0.10111331 -0.04630226 -0.07423384 0.28779528 0.069629215 -0.004301607
-0.24714701 -0.119887 -0.18128817 -0.15207419 -0.16199619 -0.029763166 -0.08020629 -0.018596718
-0.17223749 0.17828906 2.1651102e-05 -0.08746985 -0.01386106 0.28906378 0.3228998 0.13228573
0.011880875 0.16423187 0.25827083 0.0848399 -0.101830795 0.11563966 0.1182551 0.04103713
-0.038963605 -0.029835407 -0.0021725306 -0.08203565 -0.04885224 0.17719692 0.36347097 0.05102487
-0.068601206 -0.086712085 0.2136236 0.030058203 -0.14501597 -0.16715015 -0.10324821 -0.049086917
-0.042248115 0.1282354 -0.1862678 -0.10803226 0.07632956 0.05668279 0.06052536 0.018514326
-0.06446579 0.005116919 0.053588886 0.020862946 -0.22996663 -0.1578551 -0.16389702 -0.0883424
-0.109218515 -0.030525817 0.053220246 -0.121590205 -0.043493822 0.18409194 0.15478852 -0.10348051
-0.04278423 0.033342417 -0.03516377 -0.10333306 0.04817013 -0.017280377 -0.15284845 0.014442502
-0.07319496 0.07930639 0.021375008 -0.04271137 -0.045910742 0.28005528 0.1126688 -0.0064240973
-0.09459986 0.104393974 0.037363674 -0.1078691 -0.048573885 0.010041925 0.00479878 -0.043394804
0.31315973 0.45385894 -0.16020589 -0.124100104 0.2975871 0.57079774 0.021418545 -0.038311288
-0.03975833 0.24763562 -0.059307896 -0.15034823 -0.14405492 -0.006070404 -0.16381787 -0.13517931
0.15406063 0.2849495 -0.057608876 -0.01288264 0.20252088 0.5452905 0.058496673 0.05871271
0.05779396 0.30695075 0.047560196 0.08707369 0.071308136 0.06377191 0.010172692 0.012821069
-0.1417426 -0.18745245 -0.04415574 -0.05963197 -0.1327484 -0.08294956 -0.024786348 -0.048459355
-0.16403438 -0.16732256 -0.15940012 -0.10686793 -0.14979973 -0.26828116 -0.16217709 -0.09235227
0.027230043 0.14711724 -0.11898411 -0.0715912 -0.02047829 0.46257433 0.020587076 -0.006802958
-0.17665318 -0.021732204 -0.17587937 -0.060482413 -0.050527543 -0.18876304 -0.24978909 -0.026327282
0.024737233 0.25846466 0.23412813 -0.086297505 0.029402968 0.2896735 0.44903836 -0.019452304
-0.05957529 -0.054149106 -0.014688658 -0.0805517 0.02647413 0.024609 -0.03875499 -0.11526976
00000000: c1f3 8ebd eaba 893e 6ad8 113e b8c4 4fbd
00000010: 2655 053e 60f1 733d 548c dc3d 9b82 eebc
00000020: 2fdf 27bd 6317 d0bd be55 bf3d 8515 d0bd
00000030: f371 5abe db9d 04be 10ad 81bd 4116 1ebe
00000040: 6e7f e63d 4252 1d3f 9956 0a3f 7dcc 20be
00000050: 37e6 2d3e 39f6 463f 538d 303f a75c 5bbd
00000060: f375 06be 6e01 e63d 1f72 dcbc 1779 63be
00000070: bf9d aebd 2833 92bd 5872 80be 5228 92be
00000080: 562e 6c3e e4d4 0c3f d0c1 863e 8607 e1bd
00000090: 8a68 8c3e 436e 0a3f 7c00 883e 94b3 fcbd
000000a0: b446 f03b acee 303e f4c3 343d 038c 59be
000000b0: 5511 88bc 20b6 ffbc 7d24 cebd fe09 72be
000000c0: d080 33be 6ec1 533e dd0c 0ebe 022a 02be
000000d0: 6ef3 34bd 07bb 223f c766 a33d d63a 7dbd
000000e0: dee2 29be cbae 073e 0b36 95bc 914e 2abe
000000f0: 0927 bdbd bfd5 3ebd 03ec cbbd e5b3 f0bd
00000100: 902d 78bb 434e 213e 6c6a 51be efc0 2dbd
00000110: e7fc 8b3e 7257 883e 95cc 0d3d 5600 0f3e
00000120: 4e90 21bc d24c 463d 7a4d c5bd 91ad 143a
00000130: bffd 88bd 4b94 923c 033e b1bd 5839 933d
00000140: e72f 08be 2b8b 083e 7f14 cfbd 70a7 3dbd
00000150: e907 98bd e759 933e c399 8e3d 7ff4 8cbb
00000160: 1b14 7dbe 5187 f5bd 9ba3 39be 56b9 1bbe
00000170: 54e2 25be e2d1 f3bc 3243 a4bd 2558 98bc
00000180: 065f 30be 6891 363e 639f b537 6523 b3bd
00000190: 8019 63bc 2b00 943e 1f53 a53e e975 073e
000001a0: 00a8 423c 662c 283e 133c 843e 8bc0 ad3d
000001b0: aa8c d0bd 7cd4 ec3d bb2f f23d 8d16 283d
000001c0: 4d98 1fbd 6269 f4bc 0461 0ebb 4f02 a8bd
000001d0: 4919 48bd 1c73 353e de18 ba3e 74ff 503d
000001e0: ca7e 8cbd 1b96 b1bd 25c0 5a3e 9f3c f63c
000001f0: 117f 14be 6929 2bbe cc73 d3bd 5d0f 49bd
00000200: 5c0c 2dbd 2450 033e fcbc 3ebe 0440 ddbd
00000210: ac52 9c3d 372c 683d 71e9 773d 5bab 973c
00000220: a406 84bd d4ab a73b 0580 5b3d c5e8 aa3c
00000230: 5f7c 6bbe c4a4 21be 9fd4 27be dcec b4bd
00000240: f5ad dfbd 4711 fabc 79fd 593d 4904 f9bd
00000250: 9426 32bd 9982 3c3e e280 1e3e 97ed d3bd
00000260: 843e 2fbd 0f92 083d e307 10bd 49a0 d3bd
00000270: 0b4e 453d 948f 8dbc 4e84 1cbe 3ea0 6c3c
00000280: 3de7 95bd 636b a23d a41a af3c 1ef2 2ebd
00000290: e70c 3cbd 6863 8f3e e6be e63d 3c81 d2bb
000002a0: 92bd c1bd 82cc d53d a70a 193d 7aea dcbd
000002b0: 69f5 46bd e386 243c 163f 9d3b c0be 31bd
000002c0: 7956 a03e 3360 e83e 030d 24be 3228 febd
000002d0: 565d 983e cd1f 123f f275 af3c 4cec 1cbd
000002e0: a1d9 22bd 3194 7d3e d6ec 72bd e3f4 19be
000002f0: 2283 13be 3dea c6bb dfbf 27be 726c 0abe
00000300: 12c2 1d3e e7e4 913e 49f7 6bbd b511 53bc
00000310: a261 4f3e 2998 0b3f 359a 6f3d bd7c 703d
00000320: 5cb9 6c3d a628 9d3e 7bce 423d b153 b23d
00000330: 000a 923d d99a 823d 5dab 263c 760f 523c
00000340: f924 11be 89f3 3fbe a6dc 34bd a740 74bd
00000350: 32ef 07be 75e1 a9bd bd0c cbbc 517d 46bd
00000360: a1f8 27be 9b56 2bbe c939 23be 93dd dabd
00000370: 1a65 19be 265c 89be c011 26be 3023 bdbd
00000380: 8a11 df3c e7a5 163e f1ad f3bd 689e 92bd
00000390: 16c2 a7bc 8bd6 ec3e 3aa6 a83c 59eb debb
000003a0: 92e4 34be bc07 b2bc b919 34be 68bc 77bd
000003b0: f8f5 4ebd 194b 41be b6c8 7fbe 50ac d7bc
000003c0: bda5 ca3c 7b55 843e 49bf 6f3e bfbc b0bd
000003d0: 7ede f03c 1650 943e 5be8 e53e 705a 9fbc
000003e0: 3805 74bd 74cb 5dbd b2a8 70bc 4af8 a4bd
000003f0: 46e0 d83c d098 c93c 8dbd 1ebd 8d12 ecbd

main.pyramid:32:batchnorm.weight f4 [32]
0.8187911 0.6676035 0.75188667 1.2013243 0.82946414 1.0267085 0.67025137 0.9236997
1.1681304 1.1071742 0.42412856 0.6387691 0.7072729 0.665458 0.9358255 0.6149477
0.8124825 0.65831476 0.6629313 0.64512104 0.74978477 0.67713654 1.1714611 1.166983
0.74682873 0.6518465 0.8415175 1.1214596 0.8315058 1.1334859 0.9339739 0.9789912
00000000: 4b9c 513f 10e8 2a3f a57b 403f ffc4 993f
00000010: c357 543f 2f6b 833f 9895 2b3f 9577 6c3f
00000020: 4c85 953f e2b7 8d3f 6127 d93e 5f86 233f
00000030: d60f 353f 755b 2a3f 4392 6f3f 366d 1d3f
00000040: dafe 4f3f 5187 283f deb5 293f a726 253f
00000050: e5f1 3f3f d258 2d3f 70f2 953f b35f 953f
00000060: 2b30 3f3f 6adf 263f b16d 573f fd8b 8f3f
00000070: 90dd 543f 1116 913f ea18 6f3f 2b9f 7a3f

main.pyramid:32:batchnorm.bias f4 [32]
-1.2009408 0.08417245 -0.63701314 -0.739409 -0.54532504 -0.76629835 -0.015618264 -0.7458194
-0.02662853 -0.7846513 0.35009965 -0.11257326 0.16444917 0.116376184 -0.2336579 0.14881898
-0.57502323 0.18290623 0.10951454 0.060580708 0.48611987 -1.2393162 -0.63235563 -0.47044834
0.45762405 -0.0068776044 -0.54784614 -0.7946751 -1.0116837 -0.6978417 0.00068206986 -0.45727423
00000000: 6eb8 99bf 9b62 ac3d 4b13 23bf e949 3dbf
00000010: 6c9a 0bbf 212c 44bf bfe3 7fbc 05ee 3ebf
00000020: 1324 dabc e8de 48bf 4340 b33e cf8c e6bd
00000030: 5d65 283e a356 ee3d 0444 6fbe 0164 183e
00000040: b934 13bf c54b 3b3e 2949 e03d 7a23 783d
00000050: b4e4 f83e eaa1 9ebf 0fe2 21bf 9bde f0be
00000060: b34d ea3e 875d e1bb a53f 0cbf d46f 4bbf
00000070: da7e 81bf c1a5 32bf efcc 323a d91f eabe

main.pyramid:32:batchnorm.running_mean f4 [32]
1.6878258 -0.67586607 3.7935894 2.564451 2.6512446 -1.1468335 -0.48017475 3.5392287
-3.9557421 3.322517 0.14077348 -0.5487737 -3.3923056 -0.8391199 -1.8842825 -0.63418895
1.786812 -1.1709828 0.0667316 -0.505585 -0.37101987 4.1750884 3.1136572 3.7109451
-0.83241075 -1.1804602 -0.9386702 3.678696 4.4395742 3.1338925 2.7531016 -2.1777587
00000000: ad0a d83f 8f05 2dbf 2bca 7240 f71f 2440
00000010: fead 2940 71cb 92bf 77d9 f5be b982 6240
00000020: e12a 7dc0 1ea4 5440 ec26 103e 6f7c 0cbf
00000030: 891b 59c0 90d0 56bf 2b30 f1bf 355a 22bf
00000040: 41b6 e43f c4e2 95bf 94aa 883d 056e 01bf
00000050: 51f6 bdbe 539a 8540 2946 4740 2080 6d40
00000060: df18 55bf 5219 97bf b14c 70bf c16f 6b40
00000070: fe10 8e40 b291 4840 d132 3040 6660 0bc0

main.pyramid:32:batchnorm.running_var f4 [32]
2.0718224 5.2961693 3.9201357 1.4574621 2.9851232 4.330933 8.137389 1.5341378
16.377544 2.2869446 1.3245357 5.4295416 1.8539165 5.779128 5.214353 1.4160476
6.632891 4.4734693 4.2598643 3.7635193 5.275545 3.024981 1.7994468 2.6451633
5.952827 3.6884255 1.7199631 2.102837 4.4391603 1.6297711 17.897451 4.078084
00000000: bd98 0440 387a a940 81e3 7a40 1e8e ba3f
00000010: 420c 3f40 0197 8a40 bf32 0241 a15e c43f
00000020: 3605 8341 4d5d 1240 638a a93f cebe ad40
00000030: 234d ed3f 9eee b840 fbdb a640 0c41 b53f
00000040: a540 d440 a926 8f40 cf50 8840 80dd 7040
00000050: 44d1 a840 4a99 4140 4654 e63f 5b4a 2940
00000060: 8f7d be40 2a0f 6c40 c027 dc3f e294 0640
00000070: 9a0d 8e40 579c d03f fb2d 8f41 aa7f 8240

main.pyramid:32-64:conv.weight f4 [64, 32, 4, 4]
0.11931406 0.08134494 0.24991168 0.084467314 0.091318145 -0.28727895 -0.045579337 0.10070291
-0.12381875 -0.56886685 -0.52428734 0.09016915 0.015107117 0.005203055 0.07077656 0.04595161
0.09196743 0.16096886 -0.24255566 -0.009659037 0.15058689 0.19570407 -0.026808167 0.08340652
0.06265724 0.17088185 -0.0068247663 0.055727098 0.10954796 0.21926719 -0.016689269 -0.02318685
0.14950094 -0.04063445 0.30778494 0.028446106 -0.056589957 -0.56949043 0.013564792 0.13370225
-0.21500878 -0.02198712 0.38524157 0.07925227 -0.09610063 -0.28728157 0.22702648 0.06880743
0.17498155 0.10230306 -0.19195837 -0.006530506 0.19241063 0.25118762 -0.07815112 0.072768025
-0.25926587 0.12016239 -0.04010616 -0.113305815 -0.1748031 0.0111292275 0.08380413 -0.15357865
-0.3157179 -0.042965062 -0.13038965 0.059349053 -0.19124985 -0.08823037 0.06051701 -0.02030868
-0.2741915 -0.20088717 -0.048033632 0.042647872 -0.21985531 -0.2940935 0.046529017 0.1046631
0.22172602 0.15635422 0.09423856 0.00400773 0.36931205 -0.096013635 0.129672 0.062129974
-0.004588672 -0.60758543 -0.22464961 -0.112356246 -0.09724161 0.018441256 0.007992444 0.031163465
-0.044807818 -0.035204567 -0.3412473 -0.02946249 -0.10183686 0.15607604 -0.4775145 -0.018107468
0.093715854 0.11429196 0.17983682 -0.0069204303 0.044039957 0.14377324 -0.016341351 -0.16187741
-0.19169691 -0.16927668 -0.06927034 -0.03835476 0.051488977 0.09844241 0.2547851 0.27851722
0.3206355 0.12123337 -0.081693955 0.13831456 0.42249107 0.07901957 -0.02909363 -0.10618614
0.17545964 0.28977898 0.03727124 0.062767625 0.3177646 0.33972803 0.1088326 0.04639225
0.048917763 0.26560107 0.02237257 0.070276305 0.028201977 0.20548046 -0.033821553 -0.008948117
0.10818693 -0.024053719 -0.10576499 0.026454307 -0.31495476 0.055153567 -0.015338659 -0.15936606
-0.034463122 -0.13299248 0.11840972 -0.06872267 0.030506589 -0.021523159 -0.06392149 -0.032611627
0.04488094 -0.19620979 -0.06590713 -0.02371555 0.0033736387 0.06748813 0.120131165 -0.0017527333
-0.29720846 0.17968304 -0.033993647 -0.0047769626 0.08138257 0.06789414 0.14164892 -0.06355852
-0.15729946 -0.34655184 -0.3917555 0.11888761 -0.24708182 -0.54622537 -0.9912508 -0.18513346
-0.01521996 -0.064317 -0.52901983 -0.08856007 -0.048123732 -0.012164396 -0.021350259 -0.05648
-0.18939805 -0.02937967 -0.10314096 0.012059105 -0.04539622 0.03952481 -0.06886817 -0.07763491
0.043066084 0.15435793 -0.032977547 0.03908833 0.029485555 0.1514378 0.018976258 -0.137474
0.008339851 -0.025752725 0.04527551 -0.095498286 -0.034625154 0.18981749 0.17355433 -0.042399455
-0.15001547 0.013418603 0.062064137 -0.06521044 -0.25910193 0.20881736 -0.042698838 -0.014088913
-0.10559144 -0.0026761866 0.26758832 -0.27288303 0.07723517 -0.071497455 0.28259665 -0.18132886
0.112560995 0.15667062 0.24397989 -0.07260329 0.025915803 0.017250827 0.23093654 -0.094542675
0.025829628 0.034677092 -0.04400978 0.04839742 0.054391403 0.07237428 0.29990286 0.03475109
-0.20429733 -0.05528987 -0.08300663 0.03461037 0.094553694 -0.117059745 -0.04892034 0.14841306
00000000: ee5a f43d 2d98 a63d d9e8 7f3e 33fd ac3d
00000010: 0205 bb3d 3a16 93be 66b1 3abd 543d ce3d
00000020: af94 fdbd 42a1 11bf b237 06bf 9aaa b83d
00000030: d783 773c 647e aa3b 4df3 903d c137 3c3d
00000040: 6c59 bc3d 05d5 243e 8360 78be f040 1ebc
00000050: 7333 1a3e a666 483e cd9c dbbc 0ad1 aa3d
00000060: 7052 803d a7fb 2e3e 4aa2 dfbb 1942 643d
00000070: ae5a e03d 9487 603e efb7 88bc 59f2 bdbc
00000080: c616 193e 4f70 26bd fd95 9d3e cf07 e93c
00000090: dfca 67bd 20ca 11bf dd3e 5e3c 3ee9 083e
000000a0: 432b 5cbe 551e b4bc 623e c53e 044f a23d
000000b0: 68d0 c4bd 9216 93be a179 683e e9ea 8c3d
000000c0: 5d2e 333e 4484 d13d bc90 44be dbfd d5bb
000000d0: 4b07 453e aa9b 803e b20d a0bd 6707 953d
000000e0: 7fbe 84be b317 f63d 5b46 24bd e10c e8bd
000000f0: 95ff 32be 5d57 363c 80a1 ab3d b943 1dbe
00000100: c7a5 a1be 22fc 2fbd dd84 05be fe17 733d
00000110: 00d7 43be 20b2 b4bd afe0 773d 645e a6bc
00000120: d462 8cbe 5eb5 4dbe eabe 44bd 89af 2e3d
00000130: c021 61be 6c93 96be 3695 3e3d 9b59 d63d
00000140: 250c 633e 521b 203e 2500 c13d 4753 833b
00000150: 7816 bd3e cca2 c4bd bdc8 043e 007c 7e3d
00000160: 925c 96bb b88a 1bbf 8c0a 66be 081b e6bd
00000170: 9c26 c7bd 1e12 973c bdf2 023c 864a ff3c
00000180: 6788 37bd aa32 10bd f7b7 aebe 525b f1bc
00000190: d88f d0bd 66d2 1f3e c87c f4be 1d56 94bc
000001a0: 19ee bf3d e711 ea3d 2527 383e c7c4 e2bb
000001b0: 3e63 343d 4b39 133e 4cde 85bc 31c3 25be
000001c0: 324c 44be de56 2dbe 9cdd 8dbd e119 1dbd
000001d0: 1be6 523d 2d9c c93d 3173 823e cf99 8e3e
000001e0: 562a a43e 3349 f83d 294f a7bd 55a2 0d3e
000001f0: c050 d83e 03d5 a13d c455 eebc 1e78 d9bd
00000200: b1ab 333e e95d 943e baa9 183d 508c 803d
00000210: 0bb2 a23e d5f0 ad3e a0e3 de3d cd05 3e3d
00000220: fe5d 483d ddfc 873e ae46 b73c 06ed 8f3d
00000230: d507 e73c 7869 523e 7888 0abd 1f9b 12bc
00000240: 1c91 dd3d 4e0c c5bc 519b d8bd b4b6 d83c
00000250: c041 a1be b5e8 613d 004f 7bbc db30 23be
00000260: 3429 0dbd 2e2f 08be cc80 f23d 79be 8cbd
00000270: f4e8 f93c 5651 b0bc 45e9 82bd c593 05bd
00000280: 14d5 373d 38eb 48be 51fa 86bd 1d47 c2bc
00000290: 4418 5d3b 3737 8a3d 5407 f63d f8bb e5ba
000002a0: b52b 98be d5fe 373e ec3c 0bbd 1188 9cbb
000002b0: e8ab a63d 150c 8b3d 6a0c 113e f82a 82bd
000002c0: 1c13 21be 3e6f b1be 2d94 c8be 597b f33d
000002d0: 0403 7dbe 6dd5 0bbf 9dc2 7dbf a093 3dbe
000002e0: 245d 79bc a2b8 83bd d86d 07bf fb5e b5bd
000002f0: 641d 45bd 2d4d 47bc bde6 aebc 9357 67bd
00000300: 90f1 41be a2ad f0bc 913b d3bd 8d93 453c
00000310: 63f1 39bd c4e4 213d c10a 8dbd 0dff 9ebd
00000320: 1066 303d 0110 1e3e 7713 07bd 161b 203d
00000330: b18b f13c 8312 1b3e 1974 9b3c fcc5 0cbe
00000340: dfa3 083c 61f7 d2bc d072 393d 9b94 c3bd
00000350: 1bd3 0dbd 845f 423e 3ab8 313e 0dab 2dbd
00000360: a89d 19be b3d9 5b3c f736 7e3d 0d8d 85bd
00000370: 02a9 84be 38d4 553e fae4 2ebd 2fd5 66bc
00000380: 5340 d8bd f662 2fbb 5601 893e 53b7 8bbe
00000390: 792d 9e3d 426d 92bd 82b0 903e 46ae 39be
000003a0: 6186 e63d 436e 203e ddd5 793e 09b1 94bd
000003b0: 614d d43c 9b51 8d3c a17a 6c3e 979f c1bd
000003c0: a898 d33c 9109 0e3d 9943 34bd 603c 463d
000003d0: 85c9 5e3d f738 943d de8c 993e 2957 0e3d
000003e0: 5233 51be a177 62bd 61ff a9bd 9ac3 0d3d
000003f0: 5ea5 c13d 05bd efbd b260 48bd 98f9 173e

main.pyramid:64:batchnorm.weight f4 [64]
0.67826164 0.6134921 0.20791258 0.25463995 0.29556227 0.43533033 0.5433374 0.5788557
0.292481 0.32347766 0.2225222 0.39456555 0.35744125 0.2394342 0.2617599 0.21423842
0.31789812 0.44099918 0.63282514 0.41694003 0.28908044 0.42593625 0.4175335 0.5315379
0.66274303 0.25313625 0.22286019 0.39833763 0.3620901 0.5474218 0.413272 0.23007096
0.613245 0.27033257 0.4908686 0.27065274 0.3377302 0.4653138 0.49614722 0.3330009
0.5245127 0.5645865 0.60974485 0.5642305 0.42501998 0.20853941 0.31530306 0.63527143
0.29509568 0.61372167 0.5079928 0.606602 0.29703593 0.44743422 0.3008184 0.54885757
0.66217774 0.501403 0.5548485 0.34706607 0.28068113 0.4176346 0.33796665 0.24249187
00000000: 8ea2 2d3f d10d 1d3f 09e7 543e 2b60 823e
00000010: f053 973e 9ee3 de3e 2918 0b3f e32f 143f
00000020: 12c0 953e dd9e a53e dcdc 633e 7f04 ca3e
00000030: 8a02 b73e 3d2e 753e 6505 863e 5161 5b3e
00000040: 8bc3 a23e a5ca e13e d400 223f 2a79 d53e
00000050: 5a02 943e 5114 da3e f3c6 d53e de12 083f
00000060: 87a9 293f 139b 813e 7635 643e e9f2 cb3e
00000070: e063 b93e d623 0c3f 6398 d33e b997 6b3e
00000080: a0fd 1c3f 0869 8a3e 2153 fb3e ff92 8a3e
00000090: f9ea ac3e 9c3d ee3e 0207 fe3e 187f aa3e
000000a0: 7746 063f be88 103f 3d18 1c3f 6971 103f
000000b0: 389c d93e 5b8b 553e 676f a13e 26a1 223f
000000c0: c816 973e dd1c 1d3f d10b 023f 454a 1b3f
000000d0: 1815 983e 1916 e53e df04 9a3e ee81 0c3f
000000e0: 7b84 293f f25b 003f 8d0a 0e3f a5b2 b13e
000000f0: 70b5 8f3e 34d4 d53e f709 ad3e ca4f 783e

main.pyramid:64:batchnorm.bias f4 [64]
-0.3915037 -0.37564036 -0.06476791 0.1314779 -0.20274054 0.22956446 -0.3525183 -0.42309424
0.06014143 0.05663344 -0.020084528 -0.20048244 0.10112113 0.062396567 -0.07267639 0.0214383
0.20390184 -0.08207938 -0.38953865 -0.117661655 -0.065615684 -0.1363254 -0.3549367 -0.2631805
-0.36297536 -0.12821636 -0.071355425 -0.13697943 -0.08887481 -0.74459565 -0.18547788 0.04613851
-0.44925857 0.06194496 -0.17549297 -0.037370853 -0.020266503 -0.232987 -0.32395175 0.07663041
-0.3162821 -0.45979166 -0.49124324 -0.30877322 0.18180111 -0.03438365 -0.061652996 0.0411078
0.096275955 -0.30265623 -0.20181859 -0.33312345 0.054883596 -0.07035996 -0.08100824 -0.39127722
-0.40961617 -0.28673592 -0.3707439 -0.051142726 -0.12870167 -0.13102359 -0.06796524 0.021241577
00000000: 2c73 c8be ef53 c0be 0aa5 84bd 25a2 063e
00000010: 379b 4fbe f212 6b3e 477d b4be cf9f d8be
00000020: dc56 763d 77f8 673d 4f88 a4bc 454b 4dbe
00000030: 9818 cf3d 8b93 7f3d 5cd7 94bd 609f af3c
00000040: a5cb 503e 3c19 a8bd 9c71 c7be 98f8 f0bd
00000050: 8461 86bd e398 0bbe 43ba b5be 98bf 86be
00000060: e8d7 b9be 264b 03be cb22 92bd 5644 0cbe
00000070: ff03 b6bd d29d 3ebf eaed 3dbe bcfb 3c3d
00000080: 3805 e6be 00ba 7d3d 6eb4 33be 2e12 19bd
00000090: f005 a6bc 2594 6ebe 01dd a5be 68f0 9c3d
000000a0: baef a1be d069 ebbe 3c84 fbbe 8617 9ebe
000000b0: 122a 3a3e dfd5 0cbd da87 7cbd a760 283d
000000c0: 542c c53d c2f5 9abe 88a9 4ebe 288f aabe
000000d0: 9fcd 603d e218 90bd a6e7 a5bd 7d55 c8be
000000e0: 36b9 d1be 0dcf 92be 25d2 bdbe 097b 51bd
000000f0: 5fca 03be 0c2b 06be 5c31 8bbd d102 ae3c

main.pyramid:64:batchnorm.running_mean f4 [64]
0.3197378 1.6882463 1.1424485 0.71241724 1.8581605 -0.71385807 -0.71054906 1.1859758
0.73340666 -0.09270412 1.0792115 1.6882232 0.62103677 0.90984243 0.46986893 -0.9829061
0.49547467 1.5665499 1.2537464 -0.90547943 -0.22365217 -1.2185246 0.3198643 -3.093315
0.29372808 3.3968 0.51124823 4.956494 -2.660519 1.5827528 1.0221215 -0.61044675
2.1131232 -1.4362965 -2.365638 -2.22857 2.1237588 1.9115269 0.14417261 -0.68263274
0.86950153 1.5820378 0.5315946 0.99198395 0.29109114 0.66235226 -0.4569032 0.08421791
0.33968025 -1.9879441 0.36055216 1.3895462 -0.25496393 1.3906183 1.9580493 -1.5299203
0.9914883 1.2289783 0.4928982 0.5746624 0.86256784 1.4970539 -0.25428078 1.2966943
00000000: acb4 a33e 7418 d83f c13b 923f fa60 363f
00000010: 34d8 ed3f 67bf 36bf 8be6 35bf 0ece 973f
00000020: 8ac0 3b3f a8db bdbd 9a23 8a3f b317 d83f
00000030: 44fc 1e3f 6feb 683f a992 f03e bc9f 7bbf
00000040: dbae fd3e b584 c83f c37a a03f 80cd 67bf
00000050: 1305 65be 9df8 9bbf 41c5 a33e dff8 45c0
00000060: 8763 963e 2c65 5940 2ae1 023f 999b 9e40
00000070: f145 2ac0 a597 ca3f e1d4 823f 3d46 1cbf
00000080: 693d 0740 90d8 b7bf 9d66 17c0 e4a0 0ec0
00000090: aaeb 0740 eaac f43f fca1 133e 05c1 2ebf
000000a0: a797 5e3f 3780 ca3f 9516 083f a9f2 7d3f
000000b0: e609 953e eb8f 293f 37ef e9be 717a ac3d
000000c0: 92ea ad3e f474 febf 4b9a b83e a6dc b13f
000000d0: a28a 82be c8ff b13f 5ca1 fa3f 6ed4 c3bf
000000e0: 2dd2 7d3f 294f 9d3f 275d fc3e 131d 133f
000000f0: 3fd1 5c3f 769f bf3f 1731 82be 14fa a53f

main.pyramid:64:batchnorm.running_var f4 [64]
10.967874 7.3436136 2.7263522 3.1132605 5.088378 7.7388706 5.327801 7.637301
4.5065866 3.5712104 11.1267 4.2207417 4.4828787 2.3774424 3.732625 4.265894
4.68147 7.379574 7.0798144 7.9275904 5.45334 6.3081274 4.1583805 9.31726
7.211297 2.6152556 2.0622208 24.914501 4.4943395 6.762858 4.2633505 3.3510127
5.5497484 2.361994 13.472029 4.6794744 3.838231 13.472897 8.187731 4.0573707
6.541327 3.151764 3.3977046 2.4120643 7.4135127 2.084306 3.1676042 13.910839
3.0175748 5.701669 7.3643246 7.1807885 8.99444 3.4219358 5.2212462 9.477468
6.5483055 5.9080267 8.388964 4.9210343 4.6245213 5.128787 5.046578 2.0738106
00000000: 697c 2f41 e2fe ea40 8e7c 2e40 a93f 4740
00000010: fed3 a240 d4a4 f740 597d aa40 c564 f440
00000020: f535 9040 b68e 6440 f706 3241 5110 8740
00000030: be73 8f40 0428 1840 54e3 6e40 3482 8840
00000040: 9ace 9540 7825 ec40 d78d e240 d2ae fd40
00000050: c381 ae40 2edc c940 7411 8540 7f13 1541
00000060: f2c2 e640 5960 2740 6dfb 0340 e650 c741
00000070: a1d1 8f40 5569 d840 5e6d 8840 fe76 5640
00000080: 8a97 b140 e92a 1740 6e8d 5741 41be 9540
00000090: 94a5 7540 fc90 5741 f200 0341 fbd5 8140
000000a0: 8d52 d140 80b6 4940 fe73 5940 435f 1a40
000000b0: 7f3b ed40 4565 0540 07ba 4a40 cc92 5e41
000000c0: f21f 4140 1374 b640 8ca8 eb40 05c9 e540
000000d0: 3ae9 0f41 ff00 5b40 7314 a740 b5a3 1741
000000e0: b88b d140 8e0e bd40 3239 0641 1d79 9d40
000000f0: 14fc 9340 061f a440 917d a140 50b9 0440
