saved_models/VAE_fmnist/netG_pixel_ngf_16_nz_100_beta_1.0_augment_hflip_epoch_100.pth (torch, 844359 bytes, 16 tensors)

main.initial:100-64:convt.weight f4 [100, 64, 4, 4]
-0.0020097846 0.0027286296 -0.02436203 0.011392681 -0.011760142 0.0044084885 -0.028267615 -0.020974375
0.013818704 -0.0071093235 -0.0026540135 -0.0066222143 0.024829105 0.01305637 0.013271583 -0.01898808
0.008694371 0.035302624 0.00011337262 0.046858467 -0.013927663 0.010152331 -0.000800646 0.025387557
-0.001088154 0.014053779 0.0119327 0.017773494 0.010611665 -0.008647636 -0.00088955765 0.0038214528
0.011079983 0.003378931 -0.014105786 -0.012663243 0.02005061 0.0027934727 0.00060941145 0.022386571
0.010404886 -0.0024889745 0.008252919 0.008281026 0.051745277 -0.0022767766 -0.016046315 0.031499464
0.0066949567 -0.0009212775 -0.019970533 0.0033591825 -0.028729854 0.010701073 -0.009812894 -0.0023307612
0.010697875 0.009569351 -0.009377326 0.015823228 -0.04062019 0.02199003 0.041371565 0.0059322
-0.26567063 0.059600517 -0.008823346 -0.16288225 0.025774062 -0.0020905123 0.0009926086 -0.019383676
-0.0033226945 0.006793368 -0.0051491973 0.013287545 0.014583976 0.039424855 -0.0028620977 0.0029042824
0.042709257 -0.020372704 -0.0077044684 0.008675203 0.03669406 -0.020188851 -0.00979854 -0.0022398706
-0.011419342 0.0024125467 -0.013307301 -0.01959882 0.013652882 -0.0047696745 -0.028663477 -0.017955035
-0.008785469 0.0077474923 0.004702693 -0.01118042 0.010327167 0.016846705 0.013319951 -0.022758517
0.023453975 0.024986893 -0.016946726 -0.011199939 0.02214802 -0.0063676056 0.005793773 -0.034313776
0.038613383 0.013452373 -0.0060746237 -0.0037847955 0.020343337 -0.013386603 -0.001940911 -0.0085683195
0.008834649 -0.014702865 -0.018966125 0.015309385 0.01788874 -0.0030609155 0.037275344 0.054001614
-0.02586999 0.03687 -0.008334337 -0.1148875 0.010125218 0.012179153 -0.016155412 0.036200315
-0.0193357 -0.009534642 -0.021134108 -0.01461944 0.0076657147 -0.004825414 -0.010975304 0.057708338
0.028512767 -0.0109762475 0.0063162814 0.009707419 0.010101074 -0.030327925 -0.002792977 -0.021399725
-0.0141478395 -0.012250172 0.007731425 -0.032443523 -0.0018683727 0.0066844267 -0.014788336 -0.020637823
0.01820125 -0.043008022 0.034372896 0.018006686 0.021031898 0.014487563 0.023986213 0.013240295
0.011549608 0.024148872 0.00030709963 -0.013382311 0.047446612 -0.03368013 -0.01571087 0.024761919
0.026248915 0.010854704 0.02020701 0.045008328 0.017909402 -0.019712742 0.017614348 0.046008456
-0.026566258 -0.013781285 0.03559179 -0.011667272 0.020826101 -0.008088687 0.05352757 0.0013424432
0.025475638 -0.010973079 -0.0048327735 0.030294897 -0.0026568875 -0.0074322578 -0.00091610296 0.011080935
-0.008819036 -0.0030613572 0.019463483 -0.029681765 0.013742339 -0.0031550832 0.03280468 0.016560316
0.013030777 0.0046504927 -0.011654045 -0.011721185 0.015983257 -0.00958205 0.00412428 0.020548474
0.0040808194 -0.003969351 0.008053014 0.00046323315 0.011625649 0.008253746 -0.012173384 -0.021222252
-0.004733702 -0.019420428 -0.002529246 -0.009233637 0.009300311 -0.00666316 -0.0045103147 0.0033650326
-0.0031595014 0.015171515 0.0206187 -0.013915374 0.007971195 0.013472488 -0.027136 -0.037369337
0.008126136 -0.0010998647 0.00070190505 0.034111038 0.016554335 0.01192102 0.015743129 0.025084807
0.011206102 -0.003449406 -9.853378e-05 0.0145058 0.015024528 0.022807624 0.00075556093 0.041252952
00000000: 97b6 03bb cfd2 323b e192 c7bc 5ea8 3a3c
00000010: 9cad 40bc 1575 903b 7c91 e7bc 74d2 abbc
00000020: d867 623c 54f5 e8bb f5ee 2dbb 29ff d8bb
00000030: 6866 cb3c 63ea 553c 0e71 593c e48c 9bbc
00000040: d672 0e3c 7c99 103d 76c2 ed38 aaee 3f3d
00000050: da30 64bc f655 263c 72e2 51ba 91f9 cf3c
00000060: 64a0 8eba d241 663c 5f81 433c b899 913c
00000070: 8ddc 2d3c d0ae 0dbc 3431 69ba 5771 7a3b
00000080: d188 353c 0e71 5d3b f41b 67bc 7e79 4fbc
00000090: 2d41 a43c b212 373b e9c0 1f3a 0b64 b73c
000000a0: 4179 2a3c 101e 23bb 4037 073c 24ad 073c
000000b0: dbf2 533d f935 15bb 9073 83bc 9505 013d
000000c0: 5e61 db3b e381 71ba 3e99 a3bc bb25 5c3b
000000d0: df5a ebbc 8e53 2f3c 43c6 20bc afbf 18bb
000000e0: 2446 2f3c c4c8 1c3c 5ba3 19bc b79f 813c
000000f0: 5b61 26bd 6f24 b43c 3b75 293d e662 c23b
00000100: fb05 88be ac1f 743d cc8f 10bc 9bca 26be
00000110: 2024 d33c fa00 09bb 6b1a 823a 84ca 9ebc
00000120: 90c1 59bb e79a de3b 99ba a8bb 01b4 593c
00000130: a1f1 6e3c f57b 213d 0892 3bbb c655 3e3b
00000140: e7ef 2e3d a8e4 a6bc c475 fcbb 7022 0e3c
00000150: 834c 163d 1763 a5bc 0e8a 20bc cbca 12bb
00000160: 3118 3bbc d11b 1e3b de06 5abc b48d a0bc
00000170: 56b0 5f3c ee4a 9cbb abcf eabc 7016 93bc
00000180: eef0 0fbc adde fd3b 0c19 9a3b 152e 37bc
00000190: 4733 293c 1a02 8a3c ec3b 5a3c 1270 babc
000001a0: 8d22 c03c 50b1 cc3c dcd3 8abc f37f 37bc
000001b0: c46f b53c 59a7 d0bb b1d9 bd3b 9a8c 0cbd
000001c0: 1129 1e3d 5867 5c3c a30d c7bb 550a 78bb
000001d0: 12a7 a63c 7c53 5bbc 2b66 feba 2362 0cbc
000001e0: 34bf 103c 49e4 70bc d95e 9bbc 37d4 7a3c
000001f0: 688b 923c a499 48bb 08ae 183d cc30 5d3d
00000200: 4ded d3bc ff04 173d be8c 08bc 234a ebbd
00000210: 3ee4 253c 128b 473c 5b58 84bc c846 143d
00000220: e765 9ebc 3037 1cbc 7021 adbc 6086 6fbc
00000230: ad30 fb3b 821e 9ebb c3d1 33bc 945f 6c3d
00000240: 9b93 e93c b8d5 33bc cff8 ce3b de0b 1f3c
00000250: fa7e 253c 4572 f8bc 610a 37bb 7a4e afbc
00000260: 57cc 67bc f2b4 48bc e557 fd3b 80e3 04bd
00000270: 2fe4 f4ba 0909 db3b c74a 72bc a710 a9bc
00000280: ca1a 953c 2e29 30bd 98ca 0c3d c282 933c
00000290: 164b ac3c 3e5d 6d3c bc7e c43c d3ed 583c
000002a0: 913a 3d3c dbd3 c53c 3702 a139 7b41 5bbc
000002b0: 6157 423d 2df4 09bd 15b4 80bc 82d9 ca3c
000002c0: f707 d73c eed7 313c 2c89 a53c a75a 383d
000002d0: bdb6 923c 9e7c a1bc f74b 903c 5d73 3c3d
000002e0: 7ba1 d9bc e6ca 61bc b2c8 113d 1628 3fbc
000002f0: 809b aa3c 6a86 04bc ba3f 5b3d ebf4 af3a
00000300: 49b2 d03c 6ec8 33bc 3e5c 9ebb 012d f83c
00000310: 2d1f 2ebb 4c8a f3bb a126 70ba cf8c 353c
00000320: b87d 10bc 0da1 48bb e271 9f3c 2c27 f3bc
00000330: 8c27 613c 83c5 4ebb 335e 063d 80a9 873c
00000340: 0a7f 553c 2963 983b 9cf0 3ebc 370a 40bc
00000350: 52ef 823c 08fe 1cbc f824 873b 4655 a83c
00000360: 65b8 853b 5411 82bb caf0 033c 1ade f239
00000370: 8279 3e3c b83a 073c e072 47bc 4ada adbc
00000380: 2c1d 9bbb 9717 9fbc b5c1 25bb ae48 17bc
00000390: 5560 183c a356 dabb 43cb 93bb e187 5c3b
000003a0: a30f 4fbb f291 783c 8ce8 a83c 4ffd 63bc
000003b0: 9d99 023c b6bb 5c3c 514c debc 9710 19bd
000003c0: 7c23 053c 5629 90ba 0d00 383a 04b8 0b3d
000003d0: f59c 873c 6250 433c bcf7 803c a77e cd3c
000003e0: cc99 373c 6e0f 62bb eca3 ceb8 bca9 6d3c
000003f0: 7029 763c 0ed7 ba3c d610 463a dbf8 283d

main.initial:64:batchnorm.weight f4 [64]
0.78387064 1.3736277 0.87344885 0.71320593 1.131566 0.9167403 0.75992537 1.1012145
0.6552232 0.85563236 0.82357615 0.6736897 0.60940677 1.0406127 1.2026734 1.0157715
0.6135996 1.1910033 1.0399935 0.70880556 1.201028 0.6680485 0.81485397 0.9549879
1.019611 0.81152904 0.75395554 0.8097858 1.4528722 0.95635873 0.9486465 0.8833644
1.1880094 1.1751828 0.84481186 0.86210644 0.7968755 0.9674477 1.0673612 0.45889208
0.725756 0.62943614 0.8074093 0.9116289 0.5793317 1.043374 0.8665043 0.8998516
0.80723506 1.0413196 0.9651981 1.1210725 1.3314526 0.81377137 1.0452733 0.92935663
0.93480414 0.69873285 0.828766 1.3941376 0.9412202 1.2689996 0.62178344 1.0226295
00000000: bfab 483f 08d3 af3f 589a 5f3f aa94 363f
00000010: 28d7 903f 7eaf 6a3f 788a 423f 99f4 8c3f
00000020: b5bc 273f b90a 5b3f e3d5 523f ee76 2c3f
00000030: 1502 1c3f cc32 853f 34f1 993f cd04 823f
00000040: dd14 1d3f cc72 983f 821e 853f 4874 353f
00000050: 49bb 993f 3a05 2b3f 459a 503f 167a 743f
00000060: 9d82 823f 5ec0 4f3f 3b03 413f 1f4e 4f3f
00000070: b7f7 b93f edd3 743f 7fda 723f 2b24 623f
00000080: b110 983f 646c 963f 9745 583f 02b3 5c3f
00000090: 0800 4c3f a7aa 773f 4b9f 883f e7f3 ea3e
000000a0: 25cb 393f ba22 213f 60b2 4e3f 8360 693f
000000b0: 154f 143f 478d 853f 3ad3 5d3f ad5c 663f
000000c0: f5a6 4e3f f649 853f 3917 773f 4e7f 8f3f
000000d0: 0a6d aa3f 5253 503f 84cb 853f 51ea 6d3f
000000e0: 534f 6f3f 28e0 323f 022a 543f 1a73 b23f
000000f0: cff3 703f 946e a23f 332d 1f3f 86e5 823f

main.initial:64:batchnorm.bias f4 [64]
0.040440634 -0.5374553 -0.12582472 -0.013786489 -0.25036123 -0.1380304 0.22617793 -0.07508589
0.6371413 0.27027035 -0.067733996 0.3084528 0.2832142 -0.14921883 -0.41727266 0.15620886
0.64373076 -0.38060138 -0.6496639 0.45923933 -0.46282727 0.3121217 0.38835037 -0.029420376
-0.23012273 -0.07403662 0.60280865 -0.09206125 -0.5906255 -0.09136674 -0.10002303 -0.20322195
-0.29884788 -0.20613788 -0.07323778 0.12103705 0.24567372 -0.027105318 0.15015297 0.9092144
0.1911464 0.85983586 0.028709406 -0.42535412 0.5571035 -0.083075985 0.02288571 -0.1464249
0.55498064 0.43676913 -0.30109465 -0.27160698 -0.5077822 0.18719712 -0.033499613 0.14472812
0.10170885 0.58826923 0.25659317 -0.4644775 -0.1581416 -0.41518524 0.6185254 0.11611716
00000000: 14a5 253d ac96 09bf 32d8 00be bae0 61bc
00000010: 592f 80be d757 0dbe 309b 673e a2c6 99bd
00000020: b11b 233f e060 8a3e 1fb8 8abd 87ed 9d3e
00000030: 7401 913e d2cc 18be c3a4 d5be 37f5 1f3e
00000040: 8acb 243f 2fde c2be 6050 26bf 6b21 eb3e
00000050: b2f7 ecbe 6ace 9f3e dcd5 c63e 0003 f1bc
00000060: 4ba5 6bbe 83a0 97bd ab51 1a3f 9c8a bcbd
00000070: 3c33 17bf 7c1e bbbd e0d8 ccbd 6a19 50be
00000080: 9702 99be cf15 53be b0fd 95bd 46e2 f73d
00000090: e491 7b3e f90b debc b3c1 193e 46c2 683f
000000a0: e2bb 433e 341e 5c3f fd2f eb3c 04c8 d9be
000000b0: 569e 0e3f be23 aabd d07a bb3c 69f0 15be
000000c0: 3613 0e3f 34a0 df3e 1429 9abe 1210 8bbe
000000d0: 04fe 01bf 9ab0 3f3e e436 09bd 9c33 143e
000000e0: bb4c d03d d098 163f 2e60 833e ffcf edbe
000000f0: dfef 21be 2993 d4be ae57 1e3f d5ce ed3d

main.initial:64:batchnorm.running_mean f4 [64]
0.24042547 0.21868116 -0.07088345 -0.04473749 0.07471098 0.15862665 -0.07557794 -0.13923831
0.20875286 0.049886763 -0.07781895 0.22663528 -0.1692067 0.13156098 0.057540007 -0.13854246
0.14108649 -0.07821988 0.14620633 -0.05724905 -0.04735642 0.29434007 0.22747983 0.120556936
-0.010036205 0.03296989 -0.1716349 0.09515144 0.17213939 0.002298088 -0.048233032 0.29995283
-0.25529745 0.06807926 -0.006718844 -0.039040647 -0.09904282 0.24300408 0.02346273 0.17478548
-0.05018657 -0.050206862 -0.2924643 0.11128785 0.34804666 0.12889864 -0.0003606101 0.03926036
0.073984206 0.19707729 0.2616277 0.047741674 -0.008294492 -0.07047983 0.003669663 0.21313487
-0.013599398 0.21649773 0.19904417 -0.034374356 0.24569345 0.11289258 0.12675734 -0.16112699
00000000: 1832 763e f4ed 5f3e 582b 91bd a93e 37bd
00000010: 1202 993d 066f 223e 9bc8 9abd 7d94 0ebe
00000020: 4fc3 553e 1056 4c3d 8b5f 9fbd 1413 683e
00000030: 8544 2dbe ecb7 063e 12af 6b3d 13de 0dbe
00000040: fa78 103e bf31 a0bd 1db7 153e fb7d 6abd
00000050: cef8 41bd beb3 963e 79f0 683e 8ee6 f63d
00000060: e56e 24bc 6f0b 073d 0fc1 2fbe c2de c23d
00000070: 4f45 303e 859b 163b 0090 45bd 6b93 993e
00000080: 59b6 82be 246d 8b3d c029 dcbb 16e9 1fbd
00000090: f6d6 cabd 10d6 783e e934 c03c f7fa 323e
000000a0: 6f90 4dbd b6a5 4dbd e1bd 95be e2ea e33d
000000b0: 2c33 b23e 01fe 033e 4510 bdb9 79cf 203d
000000c0: 0885 973d a1ce 493e 11f4 853e c68c 433d
000000d0: 9fe5 07bc bb57 90bd bb7e 703b 0740 5a3e
000000e0: 02d0 5ebc 95b1 5d3e 3cd2 4b3e 20cc 0cbd
000000f0: 1097 7b3e 3a34 e73d adcc 013e 79fe 24be

main.initial:64:batchnorm.running_var f4 [64]
3.7748356 4.633132 4.6355095 4.2864656 3.5787706 4.473378 4.3725686 5.2860117
4.463127 3.8242521 4.425836 4.1329975 4.365336 4.276272 4.4633536 4.3333616
3.9757106 4.3348384 3.8949237 3.8412101 3.4456506 4.718132 3.7515075 3.5340266
4.092405 4.1845613 3.5340393 3.5203881 4.0340977 4.4412436 4.8380814 3.6198277
4.5485826 4.104796 3.2940705 3.722167 4.1198196 4.4988484 3.9760888 3.937673
4.1497526 4.51606 4.0253115 3.6203878 4.1216106 4.1474266 4.2706976 3.8936183
3.97957 4.0675573 3.7773764 3.3212736 4.631775 4.17935 4.112742 3.9328837
3.908293 4.2494183 3.4193392 4.372175 3.6620524 3.9625683 4.2698035 3.9713774
00000000: e896 7140 9e42 9440 1856 9440 ba2a 8940
00000010: 940a 6540 ea25 8f40 15ec 8b40 0227 a940
00000020: f0d1 8e40 8cc0 7440 73a0 8d40 8441 8440
00000030: d5b0 8b40 38d7 8840 cbd3 8e40 e6aa 8a40
00000040: 0b72 7e40 ffb6 8a40 6e46 7940 63d6 7540
00000050: 8a85 5c40 f0fa 9640 b318 7040 7e2d 6240
00000060: fbf4 8240 ede7 8540 b32d 6240 0a4e 6140
00000070: 5417 8140 ab1e 8e40 90d1 9a40 42ab 6740
00000080: fd8d 9140 7d5a 8340 0dd2 5240 fc37 6e40
00000090: 90d5 8340 91f6 8f40 3d78 7e40 d602 7c40
000000a0: c6ca 8440 9083 9040 5acf 8040 6fb4 6740
000000b0: 3ce4 8340 b8b7 8440 8ea9 8840 0b31 7940
000000c0: 46b1 7e40 6e29 8240 89c0 7140 bf8f 5440
000000d0: 8037 9440 3cbd 8540 959b 8340 5eb4 7b40
000000e0: 7921 7a40 3cfb 8740 74d6 5a40 dce8 8b40
000000f0: 115f 6a40 b89a 7d40 3ba2 8840 0c2b 7e40

main.pyramid:64-32:convt.weight f4 [64, 32, 4, 4]
0.12913205 0.0875929 -0.11069601 -0.08570484 -0.032370914 0.042024788 0.1914816 0.02439217
0.054497983 0.021273915 0.2538428 0.108556904 0.13175507 -0.105280906 0.049410664 0.25726622
-0.41886157 0.062273555 0.37937027 0.012687425 -0.009532636 0.011914032 0.0070458786 -0.022327073
0.18536283 0.12577534 0.4012091 -0.09605701 -0.17179807 0.0046712556 0.19889814 -0.039681558
-0.0056269313 -0.051037464 0.025543919 -0.013139459 -0.041508768 -0.045964524 0.17254452 -0.15767352
-0.03201252 0.021026455 0.06593206 -0.03355287 -0.10526011 0.023394821 0.026896428 -0.31176445
-0.13896006 0.08825124 -0.08788857 -0.04420085 -0.14778803 -0.063596256 -0.017210564 0.12347605
-0.2127852 -0.06584129 0.2063258 -0.3485756 -0.25372964 0.06708369 0.23464197 -0.25861922
0.009291615 -0.029577874 -0.048544586 0.22636427 -0.04895967 0.26714793 0.11461801 0.03128259
-0.089428104 0.05282809 0.13785882 -0.05631118 0.098831415 0.31450695 0.11551218 -0.14544973
-0.017814515 0.14439437 -0.19621319 0.10891711 -0.12635095 0.1498098 0.20556441 0.2259433
-0.3550242 0.0573942 -0.22372834 0.120871074 0.023416083 -0.0019315581 -0.023737215 -0.1694483
-0.0286986 0.013901673 0.035160117 0.0737397 0.1701929 0.11833123 -0.05105116 0.1559782
0.086094216 -0.06731144 -0.1329001 0.329679 0.1289095 -0.011861255 -0.0083927475 0.21046764
-0.075152576 -0.19046615 0.09741078 -0.3957183 -0.12681852 -0.060060587 -0.084993 -0.40194276
-0.34440577 0.0039392216 -0.145031 -0.25363132 -0.10572426 -0.16583303 -0.04584634 -0.06725665
0.23514378 -0.010040153 -0.029747613 -0.025321497 0.10656002 -0.041558053 -0.07414493 0.07627605
0.20108786 0.0009536164 -0.111832075 0.21132082 0.19737002 0.076947704 0.09061586 0.015807131
0.010162482 0.022085091 -0.21813364 -0.013434207 0.2245789 0.34911048 0.08901356 0.43947777
0.096225895 0.076347776 -0.15930676 0.34718648 0.09555121 0.12478184 -0.1403066 0.19368027
-0.05166328 -0.1517805 0.08149036 0.17417297 -0.128059 -0.2435019 0.023389846 0.14125794
-0.30529574 0.054779373 0.22106056 0.5110893 -0.098637395 -0.018569244 0.11894707 0.16361597
-0.41470614 0.006042901 -0.19000109 0.09699733 -0.17237796 0.15137817 0.07060073 -0.037040573
0.019314302 0.017445002 0.087530136 0.4478374 0.025361309 -0.09759867 -0.19730963 0.1609633
-0.0774261 -0.07885454 0.060318533 -0.06367073 -0.45399457 -0.068146035 0.04167884 0.102417015
-0.14079328 -0.052247725 0.19601506 -0.15898323 -0.095831186 -0.042092443 0.16078341 -0.1287252
-0.43977028 0.042648762 0.30228037 -0.098131336 -0.052357703 0.31459945 -0.013443296 0.038443208
0.01622905 0.29564896 0.13900837 0.23109089 -0.0040500397 -0.008151813 -0.100383736 -0.016878633
-0.0123846205 0.07954063 -0.044424534 0.18031664 -0.072029166 0.31945014 -0.17203325 0.30398718
0.181522 -0.1447843 -0.15472913 0.07819218 0.17396972 0.02457834 -0.17118156 0.6724966
-0.07315437 -0.06956995 0.20049621 0.19223206 -0.11725469 -0.25576717 -0.004654971 -0.19764026
0.1396626 -0.12085846 0.0010579656 0.1809144 0.08803597 -0.3212376 0.027215375 -0.21496712
00000000: 313b 043e e863 b33d 97b4 e2bd 0586 afbd
00000010: 5d97 04bd 2f22 2c3d c113 443e 17d2 c73c
00000020: 4739 5f3d a246 ae3c aff7 813e 1553 de3d
00000030: cdea 063e 849d d7bd d662 4a3d 66b8 833e
00000040: 0675 d6be 8e12 7f3d d23c c23e ebde 4f3c
00000050: c62e 1cbc 1233 433c 1de1 e63b 44e7 b6bc
00000060: c1cf 3d3e 40cb 003e 476b cd3e 8ab9 c4bd
00000070: d5eb 2fbe 5511 993b f4ab 4b3e 2189 22bd
00000080: 1f62 b8bb a90c 51bd 7b41 d13c e346 57bc
00000090: 1905 2abd 4c45 3cbd 83af 303e 2b75 21be
000000a0: 8f1f 03bd ac3f ac3c 6307 873d bc6e 09bd
000000b0: 9d92 d7bd 7fa6 bf3c e655 dc3c 979f 9fbe
000000c0: 8c4b 0ebe 11bd b43d ecfe b3bd f30b 35bd
000000d0: bf55 17be c13e 82bd 2bfd 8cbc 03e1 fc3d
000000e0: 5de4 59be ccd7 86bd 1247 533e 8078 b2be
000000f0: dae8 81be 2c63 893d fc45 703e bd69 84be
00000100: dc3b 183c 4c4d f2bc b0d6 46bd 09cc 673e
00000110: ef89 48bd 9dc7 883e d9bc ea3d 2c22 003d
00000120: 1526 b7bd 4462 583d dd2a 0d3e 8da6 66bd
00000130: 2068 ca3d 0e07 a13e a691 ec3d c6f0 14be
00000140: bfef 91bc 1edc 133e 1cec 48be ef0f df3d
00000150: 2562 01be bd67 193e 7a7f 523e ae5d 673e
00000160: bbc5 b5be 2e16 6b3d 0b19 65be 418b f73d
00000170: 16d3 bf3c 562c fdba 8c74 c2bc db83 2dbe
00000180: 5419 ebbc d8c3 633c 0e04 103d d704 973d
00000190: 0c47 2e3e a557 f23d 051b 51bd c0b8 1f3e
000001a0: 2a52 b03d 95da 89bd f716 08be b0cb a83e
000001b0: da00 043e b655 42bc bc81 09bc d484 573e
000001c0: 98e9 99bd 8f09 43be 4e7f c73d 979b cabe
000001d0: b7dc 01be 1702 76bd cf10 aebd 71cb cdbe
000001e0: f455 b0be 9614 813b 0283 14be f7db 81be
000001f0: f685 d8bd 22d0 29be 5fc9 3bbd dbbd 89bd
00000200: 88c9 703e 747f 24bc 44b1 f3bc 076f cfbc
00000210: 243c da3d c738 2abd 4cd9 97bd 9e36 9c3d
00000220: fae9 4d3e 1dfc 793a 3708 e5bd 7c64 583e
00000230: 5e1b 4a3e c296 9d3d cf94 b93d f57d 813c
00000240: 8a80 263c cbeb b43c 6d5e 5fbe 261b 5cbc
00000250: 03f8 653e 9cbe b23e be4c b63d 3b03 e13e
00000260: 1512 c53d 395c 9c3d 5021 23be 6dc2 b13e
00000270: 5ab0 c33d 9f8d ff3d 89ac 0fbe 1f54 463e
00000280: e09c 53bd 596c 1bbe 6be4 a63d 665a 323e
00000290: e621 03be 9058 79be 109c bf3c eca5 103e
000002a0: b94f 9cbe 5660 603d b35d 623e c0d6 023f
000002b0: 6702 cabd 871e 98bc 859a f33d f28a 273e
000002c0: 5d54 d4be 8703 c63b a58f 42be 89a6 c63d
000002d0: d983 30be e102 1b3e 1e97 903d dbb7 17bd
000002e0: 0739 9e3c d2e8 8e3c 0043 b33d f24a e53e
000002f0: 85c2 cf3c d0e1 c7bd 890b 4abe 90d3 243e
00000300: 9391 9ebd 7d7e a1bd 9110 773d cd65 82bd
00000310: fa71 e8be 2690 8bbd 6eb7 2a3d 03c0 d13d
00000320: 1d2c 10be b601 56bd 2cb8 483e 80cc 22be
00000330: 2443 c4bd 2069 2cbd 68a4 243e 8ad0 03be
00000340: 9229 e1be 78b0 2e3d 7ec4 9a3e 15f9 c8bd
00000350: 0875 56bd 2e13 a13e 4541 5cbc a076 1d3d
00000360: c9f2 843c 4d5f 973e 3658 0e3e 17a3 6c3e
00000370: 32b6 84bb 2f8f 05bc fd95 cdbd 0f45 8abc
00000380: dde8 4abc 33e6 a23d 80f6 35bd eda4 383e
00000390: 0784 93bd f88e a33e 7c29 30be 35a4 9b3e
000003a0: e7e0 393e 5642 14be 5071 1ebe 3923 a03d
000003b0: 1e25 323e 8458 c93c 384a 2fbe bd28 2c3f
000003c0: f5d1 95bd b17a 8ebd e14e 4d3e 7bd8 443e
000003d0: 3a23 f0bd eaf3 82be ba88 98bb 3562 4abe
000003e0: b603 0f3e a484 f7bd 6fab 8a3a a041 393e
000003f0: 344c b43d 4179 a4be c7f2 de3c 5720 5cbe

main.pyramid:32:batchnorm.weight f4 [32]
0.72103864 0.9242434 1.0112301 0.86131775 0.95525676 0.8708419 0.8679135 1.0404267
0.80926377 0.90136784 1.120696 0.74556994 1.1620791 0.91168755 0.97447413 1.0366881
0.96627426 0.95869845 1.1206837 0.8879421 1.130216 0.8707318 1.4993248 0.9398198
0.772867 0.94309664 1.049509 0.925024 1.1691853 1.334695 0.8818132 0.90759474
00000000: fd95 383f 379b 6c3f fd6f 813f 527f 5c3f
00000010: b58b 743f 7fef 5e3f 942f 5e3f b42c 853f
00000020: e92b 4f3f 0bc0 663f f772 8f3f acdd 3e3f
00000030: 02bf 943f 5b64 693f 2377 793f 32b2 843f
00000040: c05d 773f 436d 753f 9072 8f3f 2c50 633f
00000050: ebaa 903f 47e8 5e3f e0e9 bf3f 0898 703f
00000060: 9dda 453f c86e 713f 5056 863f 5fce 6c3f
00000070: dda7 953f 49d7 aa3f 83be 613f 2158 683f

main.pyramid:32:batchnorm.bias f4 [32]
-0.13459605 0.08354867 0.34849387 -0.32021087 -0.25785205 -0.00027216613 -0.5225637 -0.11005044
-0.26749048 -0.37108716 -0.22573857 -0.12886868 -0.20594314 -0.23217897 0.032914825 0.045694936
0.22667794 -0.35941395 -0.5027183 -0.27239215 0.06188527 -0.06173619 -0.24490061 0.1312756
0.37938407 -0.14482322 -0.35824928 0.03476705 -0.19692746 -0.5168482 -0.46959275 0.041742865
00000000: 8cd3 09be 911b ab3d ca6d b23e aef2 a3be
00000010: 2f05 84be 85b1 8eb9 bcc6 05bf 2062 e1bd
00000020: 83f4 88be 23ff bdbe 0328 67be 27f6 03be
00000030: c2e2 52be 53c0 6dbe b2d1 063d 9d2a 3b3d
00000040: 431e 683e 1b05 b8be 26b2 00bf fc76 8bbe
00000050: 697b 7d3d 16df 7cbd 3ac7 7abe 1c6d 063e
00000060: a13e c23e 8a4c 14be 736c b7be e567 0e3d
00000070: 5aa7 49be 2a50 04bf 766e f0be 91fa 2a3d

main.pyramid:32:batchnorm.running_mean f4 [32]
-1.3111867 -0.34858462 -0.03640153 -0.6876825 -1.371603 -0.25902057 2.3411777 -1.5581181
-0.14681616 1.5243154 -0.3207652 -0.4730261 -0.71438104 -1.6022253 -2.6071892 -0.05264423
-0.088782944 -1.1170008 -1.7271813 0.81542957 -1.5314132 -0.43538472 -1.300352 -0.6911171
-0.8836962 1.5763819 0.8364834 0.43950364 -0.42801327 -1.4882361 2.1852715 -1.4529066
00000000: f7d4 a7bf af79 b2be c519 15bd f60b 30bf
00000010: b090 afbf 589e 84be dbd5 1540 6a70 c7bf
00000020: fa56 16be c41c c33f 563b a4be 7a30 f2be
00000030: ade1 36bf b815 cdbf 30dc 26c0 7aa1 57bd
00000040: d5d3 b5bd e2f9 8ebf 4714 ddbf febf 503f
00000050: 5905 c4bf bfea debe ef71 a6bf 0ded 30bf
00000060: ea39 62bf e2c6 c93f c723 563f 9f06 e13e
00000070: 8e24 dbbe 857e bebf 7ddb 0b40 d8f8 b9bf

main.pyramid:32:batchnorm.running_var f4 [32]
4.7645435 9.633527 4.6511836 4.047486 5.3909273 7.726979 2.67653 6.84499
3.4527962 5.27828 6.0480776 3.517706 6.988064 5.4420986 10.8985615 17.561745
4.594021 4.810926 4.726177 8.525081 8.411577 14.82032 7.33565 11.309205
6.5544057 3.090298 8.9724 13.128558 6.874403 5.9614387 3.8773737 9.55638
00000000: 2477 9840 ed22 1a41 7fd6 9440 0185 8140
00000010: 7a82 ac40 6943 f740 444c 2b40 280a db40
00000020: 9dfa 5c40 abe7 a840 da89 c140 1822 6140
00000030: 389e df40 ac25 ae40 8260 2e41 747e 8c41
00000040: 3802 9340 1bf3 9940 d83c 9740 bb66 0841
00000050: d295 0641 0820 6d41 a5bd ea40 81f2 3441
00000060: b1bd d140 71c7 4540 f38e 0f41 930e 5241
00000070: 1cfb db40 1bc4 be40 e426 7840 efe6 1841

main.pyramid:32-16:convt.weight f4 [32, 16, 4, 4]
0.22069673 0.038688928 0.21003203 -0.017305559 0.33570606 0.06511767 0.35410666 -0.013395084
0.10903248 -0.17237844 0.27772978 -0.121803425 0.18200229 0.20987304 0.3887225 -0.017423099
0.1411076 0.20714094 0.025194876 0.14530881 0.14201431 0.072500475 0.019940931 0.13467087
0.0036356559 0.17916828 -0.07985984 0.03073874 0.00724658 -0.062258832 -0.21758965 0.061667446
0.011993181 -0.07216591 -0.16689017 -0.21016806 0.011679008 -0.2642054 -0.21724467 -0.23818721
0.18847571 -0.041955058 -0.23463501 -0.21794549 0.14295569 -0.06137973 -0.16003968 -0.16357733
0.08097888 0.13970388 0.16609849 0.08219218 0.034326863 0.21333404 0.17590018 0.12238895
0.009352591 0.28591645 0.093108185 0.029892946 -0.011875044 0.19777676 -0.05137514 0.16996671
-0.0055002635 0.04928355 0.1494962 0.103261285 0.11337393 0.00948096 0.37375185 0.15500844
-0.06329883 0.12747851 0.17115396 0.017836431 -0.028324483 -0.030835936 0.10751513 -0.0072038313
0.11099199 -0.013053796 0.2132101 0.036738902 0.017373681 0.22040164 0.24049427 0.06378616
-0.060917117 0.015073398 0.09158403 0.028374543 -0.031843662 -0.014929714 0.023440927 -0.04217592
0.07455287 0.31698367 -0.10483406 0.090702124 0.22064269 0.15484458 -0.06295227 0.11504788
0.0137598375 0.25798005 -0.09938958 0.093011126 -0.09281276 -0.022696171 -0.21099715 0.050486427
-0.12525137 0.06273668 0.16000195 0.11553185 0.012064865 0.104163334 -0.05457907 0.09523269
-0.06238531 -0.093288004 -0.1339943 0.1294827 -0.1509495 -0.089774765 -0.041295234 0.09316491
0.051440623 0.24668382 0.017059503 -0.10275084 -0.10490769 0.20229138 0.11653297 -0.10250356
-0.18626118 0.22108026 0.106851965 -0.11200218 -0.11243806 0.121613786 -0.011215043 -0.09891128
-0.041136496 -0.045928925 -0.036351476 -0.19885565 -0.02455561 -0.03254832 0.07005458 -0.17053148
0.11988389 0.18365493 0.049992837 -0.0469028 -0.07686402 0.04738746 0.024255337 0.045318816
0.064140014 -0.18358515 -0.20458187 0.06607967 -0.010291463 -0.08678699 -0.17085372 -0.051157642
0.042249568 0.13857001 0.040596347 0.30529726 -0.08175615 0.059954405 -0.05914965 -0.001294208
0.038751975 -0.044295866 0.07823984 -0.16907753 0.062744275 0.093738034 0.35351685 -0.19278453
0.06559508 -0.0049266256 0.3569453 -0.41764244 0.08658136 0.040348023 0.26093143 -0.19384521
-0.06768731 -0.020985885 0.18332377 0.09955011 0.008987756 0.20295839 0.0991482 0.2885754
0.019839766 0.060215082 -0.034989912 0.22980659 -0.06962726 0.07476683 -0.060476284 0.24445319
0.13352647 0.089508586 0.03993993 -0.005461337 0.039877027 0.052737266 0.25682408 0.110142946
-0.026582725 0.2704573 0.35637173 0.14403513 0.009643985 0.17876406 0.19959943 0.11592017
0.060456626 0.12258419 0.0063357325 0.11287904 0.14350243 0.042958226 0.0046510394 0.030852312
0.063339494 0.117782 -0.002819349 0.03314131 -0.10874536 -0.02338082 -0.09654092 0.032276556
0.20459372 0.0879831 0.3773856 0.03833605 0.0376539 0.019349279 0.31645635 -0.17635597
0.080140404 0.029486537 0.38198003 -0.17644812 0.027731692 -0.018143564 0.21831767 -0.20643702
00000000: 53fe 613e 4878 1e3d a312 573e 63c4 8dbc
00000010: aae1 ab3e 6a5c 853d 784d b53e 0e77 5bbc
00000020: 6c4c df3d f983 30be 9932 8e3e 1374 f9bd
00000030: cf5e 3a3e f5e8 563e a306 c73e e3ba 8ebc
00000040: 837e 103e c11c 543e 7c65 ce3c d5cb 143e
00000050: 336c 113e 217b 943d 2a5b a33c 29e7 093e
00000060: 2f44 6e3b e477 373e 8e8d a3bd cfcf fb3c
00000070: b874 ed3b 1e03 7fbd d2cf 5ebe 0197 7c3d
00000080: 0c7f 443c b8cb 93bd 42e5 2abe 4c36 57be
00000090: 4f59 3f3c ee45 87be 6375 5ebe 59e7 73be
000000a0: c7ff 403e 11d9 2bbd 2944 70be 1a2d 5fbe
000000b0: fa62 123e 5069 7bbd 71e1 23be d180 27be
000000c0: 41d8 a53d 890e 0f3e b915 2a3e 6054 a83d
000000d0: 539a 0c3d 3d74 5a3e 2d1f 343e 0fa7 fa3d
000000e0: 9c3b 193c a463 923e 81af be3d 0de2 f43c
000000f0: 8b8f 42bc fe85 4a3e bd6e 52bd c10b 2e3e
00000100: 8e3b b4bb 8cdd 493d 8815 193e a77a d33d
00000110: 9730 e83d 0756 1b3c 675c bf3e 88ba 1e3e
00000120: d1a2 81bd ba89 023e fc42 2f3e b51d 923c
00000130: bf08 e8bc a59b fcbc e430 dc3d 1e0e ecbb
00000140: c54f e33d 97df 55bc c053 5a3e 887b 163d
00000150: 4053 8e3c f8b0 613e 2144 763e 51a2 823d
00000160: 3a84 79bd 6af6 763c 6890 bb3d bb71 e83c
00000170: 806e 02bd c29b 74bc 3007 c03c a8c0 2cbd
00000180: 2daf 983d af4b a23e 3db3 d6bd 09c2 b93d
00000190: 28f0 613e 948f 1e3e 1fed 80bd 399e eb3d
000001a0: f170 613c f615 843e c48c cbbd 9e7c be3d
000001b0: 9e14 bebd 52ed b9bc a30f 58be dbca 4e3d
000001c0: e541 00be 177c 803d 8dd7 233e f69b ec3d
000001d0: b6ab 453c 9653 d53d 4e8e 5fbd 5b09 c33d
000001e0: bd87 7fbd c80d bfbd cd35 09be 1d97 043e
000001f0: 8192 1abe d5db b7bd 3125 29bd 3fcd be3d
00000200: 67b3 523d af9a 7c3e 5fc0 8b3c 086f d2bd
00000210: d8d9 d6bd 7925 4f3e d6a8 ee3d 63ed d1bd
00000220: 40bb 3ebe dd62 623e 34d5 da3d 6661 e5bd
00000230: ed45 e6bd a610 f93d 4dbf 37bc ff91 cabd
00000240: be7e 28bd f81f 3cbd 49e5 14bd d1a0 4bbe
00000250: d928 c9bc 6351 05bd c778 8f3d ce9f 2ebe
00000260: af85 f53d 0a10 3c3e 4ac5 4c3d 271d 40bd
00000270: e26a 9dbd 5a19 423d 21b3 c63c 39a0 393d
00000280: d75b 833d bffd 3bbe e97d 51be c754 873d
00000290: 869d 28bc 61bd b1bd 47f4 2ebe ad8a 51bd
000002a0: e20d 2d3d 4ce5 0d3e 5b48 263d ec4f 9c3e
000002b0: c56f a7bd c092 753d e746 72bd 6aa2 a9ba
000002c0: 64ba 1e3d 956f 35bd 363c a03d a922 2dbe
000002d0: 1280 803d baf9 bf3d 2900 b53e 4f69 45be
000002e0: b756 863d 886f a1bb 89c1 b63e 3bd5 d5be
000002f0: 9151 b13d f843 253d ce98 853e 5c7f 46be
00000300: a59f 8abd 97ea abbc 3ab9 3b3e eee0 cb3d
00000310: 6241 133c 53d4 4f3e 360e cb3d 28c0 933e
00000320: 0187 a23c 17a4 763d 9551 0fbd 6b52 6b3e
00000330: bd98 8ebd 5a1f 993d fbb5 77bd f051 7a3e
00000340: 2abb 083e 4750 b73d 0d98 233d 04f5 b2bb
00000350: 1856 233d 0803 583d 727e 833e a092 e13d
00000360: 04c4 d9bc 6179 8a3e 5b76 b63e f27d 133e
00000370: ce01 1e3c ed0d 373e cb63 4c3e 8e67 ed3d
00000380: 5ea1 773d 6b0d fb3d fa9b cf3b 202d e73d
00000390: 4df2 123e f7f4 2f3d bf67 983b fdbd fc3c
000003a0: 23b8 813d b037 f13d d4c4 38bb 2fbf 073d
000003b0: e3b5 debd 2289 bfbc 3fb7 c5bd 6c34 043d
000003c0: 0481 513e 7c30 b43d af38 c13e 4306 1d3d
000003d0: fa3a 1a3d 6182 9e3c 9106 a23e a996 34be
000003e0: a720 a43d c08d f13c e392 c33e d1ae 34be
000003f0: 932d e33c d0a1 94bc ab8e 5f3e 3a64 53be

main.pyramid:16:batchnorm.weight f4 [16]
2.6617525 2.7605803 5.7389245 5.915493 3.5524158 3.4818032 4.2892747 4.332883
5.226326 4.7539716 3.6440904 4.01988 2.613197 5.555921 3.6040616 4.3022456
00000000: 275a 2a40 59ad 3040 45a5 b740 b84b bd40
00000010: c85a 6340 ddd5 5e40 bd41 8940 faa6 8a40
00000020: 103e a740 8920 9840 c738 6940 dba2 8040
00000030: 9f3e 2740 1bca b140 f2a8 6640 ffab 8940

main.pyramid:16:batchnorm.bias f4 [16]
1.3175634 -0.3249873 1.4654655 1.5685141 0.9884566 0.55917466 1.1133614 1.383163
1.7977782 2.0261889 1.1780446 1.8051841 0.964665 1.4945844 -0.338335 1.3672445
00000000: eba5 a83f bc64 a6be 6094 bb3f 12c5 c83f
00000010: 7e0b 7d3f 1226 0f3f a082 8e3f 7c0b b13f
00000020: 991d e63f 14ad 0140 2aca 963f 4610 e73f
00000030: 49f4 763f 8b4e bf3f 3f3a adbe de01 af3f

main.pyramid:16:batchnorm.running_mean f4 [16]
-0.086595 -0.26576063 -0.010129391 0.42195275 0.23146896 0.20688447 0.3031779 0.8371438
0.41293144 0.25553733 0.24472453 0.33235288 0.19662003 0.28333786 -0.31060833 0.6056462
00000000: b858 b1bd c711 88be bff5 25bc 310a d83e
00000010: 3306 6d3e 86d9 533e 223a 9b3e 0e4f 563f
00000020: c06b d33e cad5 823e 1199 7a3e 282a aa3e
00000030: c356 493e a911 913e 0e08 9fbe a10b 1b3f

main.pyramid:16:batchnorm.running_var f4 [16]
1.0328246 0.6893749 1.4401736 2.0964265 0.87115365 1.1370476 1.9295382 1.3450031
2.6538908 0.96423966 1.697885 1.1874264 1.2737507 1.4015799 1.4124413 1.247393
00000000: 9933 843f e07a 303f 9c57 b83f da2b 0640
00000010: ed03 5f3f c78a 913f 1cfb f63f 1029 ac3f
00000020: 59d9 2940 69d8 763f 4c54 d93f 97fd 973f
00000030: 430a a33f f866 b33f e0ca b43f 93aa 9f3f

main.final:16-1:convt.weight f4 [16, 256, 4, 4]
0.08860565 0.17392157 0.6025326 0.2347597 0.11476137 0.41521 0.9598375 0.5893036
-0.32172874 -0.051271368 0.39241916 0.032607105 -0.29349753 -0.3089597 0.06747393 -0.10880506
-0.007926499 -0.001682632 0.39833295 0.12228411 -0.14270556 -0.07535273 0.41190466 0.26852596
-0.43698087 -0.5001787 -0.06603483 -0.14175645 -0.2784431 -0.47933733 -0.11881912 -0.13239981
-0.07227859 -0.123934984 0.24730125 0.0631731 -0.24668014 -0.28703725 0.16233696 0.16119826
-0.5109413 -0.68005526 -0.24836414 -0.23760581 -0.3311831 -0.57067317 -0.19418028 -0.1796699
-0.083588384 -0.14071372 0.2197323 0.06900363 -0.33025435 -0.43059316 0.036537755 0.09788128
-0.57216734 -0.81184286 -0.37955487 -0.30576622 -0.29471907 -0.57670695 -0.22158666 -0.18492813
-0.08749983 -0.14840338 0.20254302 0.06994931 -0.38091975 -0.48106924 -0.039580896 0.045139425
-0.5765282 -0.816817 -0.39493188 -0.33971667 -0.31006765 -0.56225944 -0.21511415 -0.19146837
-0.07898719 -0.15389033 0.18692218 0.05378409 -0.40995622 -0.463922 -0.037529208 0.002406795
-0.5791179 -0.78237015 -0.37739286 -0.364323 -0.29404545 -0.5694857 -0.21398096 -0.18823476
-0.06784402 -0.13297926 0.21250714 0.057711054 -0.41196764 -0.43826276 -0.025123348 -0.0092365835
-0.5553373 -0.7591722 -0.35176435 -0.37964436 -0.2564656 -0.53664076 -0.18535456 -0.18159364
-0.06537537 -0.16755131 0.19510385 0.046589177 -0.38984933 -0.37501118 0.020662174 -0.007553383
-0.53811765 -0.6782118 -0.28424025 -0.3814351 -0.28335598 -0.5791864 -0.19830893 -0.19863339
-0.04506286 -0.11346533 0.24729949 0.039986234 -0.40655735 -0.35453653 0.04871821 -0.039222073
-0.59222543 -0.72286594 -0.31516883 -0.4354532 -0.25123364 -0.54055214 -0.16571875 -0.19121385
-0.061307993 -0.13943276 0.23293723 0.021068217 -0.4357988 -0.3766204 0.045632172 -0.07480174
-0.6111009 -0.7151642 -0.29665074 -0.47353467 -0.2826968 -0.55435324 -0.1757775 -0.21035577
-0.040703397 -0.11722463 0.24952066 0.031013226 -0.41026977 -0.318519 0.056475643 -0.09287299
-0.61659753 -0.69319624 -0.27807572 -0.50585717 -0.2724435 -0.5452055 -0.14737068 -0.21527277
-0.043388933 -0.13349906 0.23354736 -0.010033237 -0.3943634 -0.2748704 0.09849786 -0.06394329
-0.5911659 -0.62523055 -0.21522447 -0.46529514 -0.28688487 -0.55677533 -0.15070464 -0.2309889
-0.05813452 -0.10666238 0.2626343 -0.0001572423 -0.39636973 -0.26832134 0.09204234 -0.09264021
-0.6179377 -0.638099 -0.23507036 -0.49823108 -0.29250962 -0.5104069 -0.13229589 -0.23319064
-0.07089488 -0.12534349 0.22674035 -0.014246589 -0.39299864 -0.25341487 0.087440066 -0.1096497
-0.62624645 -0.5997359 -0.19745593 -0.50024307 -0.30608258 -0.52431744 -0.11113049 -0.26224962
-0.051910046 -0.09591909 0.2474338 -0.012140722 -0.3627883 -0.18605146 0.1265001 -0.096480094
-0.6143724 -0.56678295 -0.17489289 -0.48774937 -0.2883197 -0.49471116 -0.09025809 -0.22504048
-0.097609304 -0.13674895 0.19996601 -0.076413535 -0.38979065 -0.1753222 0.16817532 -0.09130192
-0.58536756 -0.5037711 -0.12555733 -0.43998235 -0.30448815 -0.5157987 -0.14148979 -0.24215244
00000000: e176 b53d 7f18 323e 943f 1a3f d964 703e
00000010: 0208 eb3d 6896 d43e e9b7 753f 9adc 163f
00000020: a1b9 a4be ed01 52bd 2aeb c83e 078f 053d
00000030: 4f45 96be f72f 9ebe c62f 8a3d 30d5 debd
00000040: 25de 01bc c38b dcba 4cf2 cb3e 1770 fa3d
00000050: 6821 12be 8852 9abd 2be5 d23e 3c7c 893e
00000060: f5bb dfbe b60b 00bf 453d 87bd 9a28 11be
00000070: 1890 8ebe b46b f5be 7057 f3bd d193 07be
00000080: cc06 94bd a0d1 fdbd 8a3c 7d3e e660 813d
00000090: b899 7cbe 8cf6 92be a93b 263e 2811 253e
000000a0: 0dcd 02bf 1a18 2ebf 2b53 7ebe f04e 73be
000000b0: d590 a9be a317 12bf 32d7 46be 63fb 37be
000000c0: 6330 abbd 4217 10be 8101 613e c651 8d3d
000000d0: 1917 a9be b576 dcbe 9da8 153d fb75 c83d
000000e0: 8f79 12bf efd4 4fbf 0455 c2be 648d 9cbe
000000f0: 6be5 96be 11a3 13bf 9de7 62be cd5d 3dbe
00000100: 1c33 b3bd 0ef7 17be 7067 4f3e 9541 8f3d
00000110: ea07 c3be b54e f6be 941f 22bd 1ee4 383d
00000120: 5a97 13bf eb1a 51bf 8334 cabe 58ef adbe
00000130: 30c1 9ebe 3cf0 0fbf e246 5cbe 4910 44be
00000140: 09c4 a1bd 6d95 1dbe 8768 3f3e b54c 5c3d
00000150: c8e5 d1be 2f87 edbe 3ab8 19bd 52bb 1d3b
00000160: 1241 14bf 6949 48bf a339 c1be 8b88 babe
00000170: 208d 96be d1c9 11bf d31d 5bbe 9dc0 40be
00000180: cef1 8abd b72b 08be 799b 593e 6d62 6c3d
00000190: 6ced d2be fa63 e0be 7bcf cdbc 0a55 17bc
000001a0: 962a 0ebf 1c59 42bf 751a b4be bf60 c2be
000001b0: 764f 83be 4a61 09bf 96cd 3dbe aff3 39be
000001c0: 86e3 85bd 9292 2bbe 4ec9 473e 4bd4 3e3d
000001d0: 559a c7be 7701 c0be b843 a93c 5e82 f7bb
000001e0: 14c2 09bf 4a9f 2dbf f087 91be 764b c3be
000001f0: 0914 91be 8f45 14bf 7f11 4bbe 8d66 4bbe
00000200: d593 38bd 8360 e8bd 143c 7d3e 9bc8 233d
00000210: 4928 d0be d085 b5be bf8c 473d 53a7 20bd
00000220: 169c 17bf be0d 39bf cf5d a1be b9f3 debe
00000230: b2a1 80be a061 0abf 2db2 29be 90cd 43be
00000240: 171e 7bbd 76c7 0ebe 1987 6e3e 4197 ac3c
00000250: 0521 dfbe 64d4 c0be cde8 3a3d a831 99bd
00000260: 1c71 1cbf 0015 37bf 9be2 97be 2373 f2be
00000270: a3bd 90be 18ea 0dbf 04ff 33be 8167 57be
00000280: 9bb8 26bd 7813 f0bd 5882 7f3e 730f fe3c
00000290: e10e d2be ec14 a3be 0153 673d 3234 bebd
000002a0: 56d9 1dbf 4f75 31bf f15f 8ebe db7f 01bf
000002b0: b77d 8bbe 9692 0bbf 57e8 16be 7770 5cbe
000002c0: 98b8 31bd fab3 08be 0a27 6f3e 7262 24bc
000002d0: 00ea c9be d0bb 8cbe 3fb9 c93d b3f4 82bd
000002e0: a656 17bf 1c0f 20bf ce63 5cbe 2a3b eebe
000002f0: 93e2 92be d488 0ebf 5152 1abe 5b88 6cbe
00000300: 761e 6ebd ce71 dabd 0178 863e 69e1 24b9
00000310: f9f0 cabe 6a61 89be b280 bc3d 27ba bdbd
00000320: 2a31 1ebf 755a 23bf 49b6 70be 2518 ffbe
00000330: d2c3 95be 07aa 02bf 9378 07be 87c9 6ebe
00000340: 5631 91bd 0b5a 00be 9f2e 683e 866a 69bc
00000350: 1e37 c9be 98bf 81be c713 b33d 0690 e0bd
00000360: b051 20bf 4b88 19bf e331 4abe ee0f 00bf
00000370: dbb6 9cbe ab39 06bf 6298 e3bd 9545 86be
00000380: a19f 54bd 3a71 c4bd 495f 7d3e e1e9 46bc
00000390: 63bf b9be 4684 3ebe 3e89 013e 5b97 c5bd
000003a0: 8247 1dbf b018 11bf 1f17 33be 49ba f9be
000003b0: a49e 93be c84a fdbe 3cd9 b8bd 0371 66be
000003c0: 63e7 c7bd eb07 0cbe e4c3 4c3e b37e 9cbd
000003d0: a492 c7be aa87 33be 2736 2c3e 80fc babd
000003e0: a6da 15bf 25f7 00bf 1a92 00be 5e45 e1be
000003f0: dfe5 9bbe 620b 04bf b3e2 10be cff6 77be
